<?xml version="1.0" ?>
<net name="person-detection-action-recognition-0006" version="10">
	<layers>
		<layer id="0" name="input" type="Parameter" version="opset1">
			<data element_type="f32" shape="1,3,400,680"/>
			<output>
				<port id="0" precision="FP32">
					<dim>1</dim>
					<dim>3</dim>
					<dim>400</dim>
					<dim>680</dim>
				</port>
			</output>
		</layer>
		<layer id="1" name="ActionNet/twinnet/shared/init_norm/batchnorm/mul/Output_0/Data_/copy_const" type="Const" version="opset1">
			<data element_type="f32" offset="0" shape="1,3,1,1" size="12"/>
			<output>
				<port id="1" precision="FP32">
					<dim>1</dim>
					<dim>3</dim>
					<dim>1</dim>
					<dim>1</dim>
				</port>
			</output>
		</layer>
		<layer id="2" name="ActionNet/twinnet/shared/init_norm/batchnorm/mul_1" type="Multiply" version="opset1">
			<input>
				<port id="0">
					<dim>1</dim>
					<dim>3</dim>
					<dim>400</dim>
					<dim>680</dim>
				</port>
				<port id="1">
					<dim>1</dim>
					<dim>3</dim>
					<dim>1</dim>
					<dim>1</dim>
				</port>
			</input>
			<output>
				<port id="2" precision="FP32">
					<dim>1</dim>
					<dim>3</dim>
					<dim>400</dim>
					<dim>680</dim>
				</port>
			</output>
		</layer>
		<layer id="3" name="ActionNet/twinnet/shared/init_norm/batchnorm/sub/add_/Output_0/Data_/copy_const" type="Const" version="opset1">
			<data element_type="f32" offset="12" shape="1,3,1,1" size="12"/>
			<output>
				<port id="1" precision="FP32">
					<dim>1</dim>
					<dim>3</dim>
					<dim>1</dim>
					<dim>1</dim>
				</port>
			</output>
		</layer>
		<layer id="4" name="ActionNet/twinnet/shared/init_norm/batchnorm/add_1" type="Add" version="opset1">
			<input>
				<port id="0">
					<dim>1</dim>
					<dim>3</dim>
					<dim>400</dim>
					<dim>680</dim>
				</port>
				<port id="1">
					<dim>1</dim>
					<dim>3</dim>
					<dim>1</dim>
					<dim>1</dim>
				</port>
			</input>
			<output>
				<port id="2" precision="FP32">
					<dim>1</dim>
					<dim>3</dim>
					<dim>400</dim>
					<dim>680</dim>
				</port>
			</output>
		</layer>
		<layer id="5" name="ActionNet/twinnet/shared/init_block/dim_inc_conv/weights/read/Output_0/Data__const" type="Const" version="opset1">
			<data element_type="f32" offset="24" shape="32,3,3,3" size="3456"/>
			<output>
				<port id="1" precision="FP32">
					<dim>32</dim>
					<dim>3</dim>
					<dim>3</dim>
					<dim>3</dim>
				</port>
			</output>
		</layer>
		<layer id="6" name="ActionNet/twinnet/shared/init_block/dim_inc_conv/Conv2D" type="Convolution" version="opset1">
			<data auto_pad="same_upper" dilations="1,1" output_padding="0,0" pads_begin="0,0" pads_end="1,1" strides="2,2"/>
			<input>
				<port id="0">
					<dim>1</dim>
					<dim>3</dim>
					<dim>400</dim>
					<dim>680</dim>
				</port>
				<port id="1">
					<dim>32</dim>
					<dim>3</dim>
					<dim>3</dim>
					<dim>3</dim>
				</port>
			</input>
			<output>
				<port id="2" precision="FP32">
					<dim>1</dim>
					<dim>32</dim>
					<dim>200</dim>
					<dim>340</dim>
				</port>
			</output>
		</layer>
		<layer id="7" name="ActionNet/twinnet/shared/init_block/dim_inc_conv/biases/read/Output_0/Data_/copy_const" type="Const" version="opset1">
			<data element_type="f32" offset="3480" shape="1,32,1,1" size="128"/>
			<output>
				<port id="1" precision="FP32">
					<dim>1</dim>
					<dim>32</dim>
					<dim>1</dim>
					<dim>1</dim>
				</port>
			</output>
		</layer>
		<layer id="8" name="ActionNet/twinnet/shared/init_block/dim_inc_conv/BiasAdd/Add" type="Add" version="opset1">
			<input>
				<port id="0">
					<dim>1</dim>
					<dim>32</dim>
					<dim>200</dim>
					<dim>340</dim>
				</port>
				<port id="1">
					<dim>1</dim>
					<dim>32</dim>
					<dim>1</dim>
					<dim>1</dim>
				</port>
			</input>
			<output>
				<port id="2" precision="FP32">
					<dim>1</dim>
					<dim>32</dim>
					<dim>200</dim>
					<dim>340</dim>
				</port>
			</output>
		</layer>
		<layer id="9" name="ActionNet/twinnet/shared/init_block/dim_inc_conv/ActionNet/twinnet/shared/init_block/dim_inc_conv_fn_activation28685/Cast_138896_const" type="Const" version="opset1">
			<data element_type="f32" offset="3608" shape="1" size="4"/>
			<output>
				<port id="1" precision="FP32">
					<dim>1</dim>
				</port>
			</output>
		</layer>
		<layer id="10" name="ActionNet/twinnet/shared/init_block/dim_inc_conv/ActionNet/twinnet/shared/init_block/dim_inc_conv_fn_activation28685" type="PReLU" version="opset1">
			<input>
				<port id="0">
					<dim>1</dim>
					<dim>32</dim>
					<dim>200</dim>
					<dim>340</dim>
				</port>
				<port id="1">
					<dim>1</dim>
				</port>
			</input>
			<output>
				<port id="2" precision="FP32">
					<dim>1</dim>
					<dim>32</dim>
					<dim>200</dim>
					<dim>340</dim>
				</port>
			</output>
		</layer>
		<layer id="11" name="ActionNet/twinnet/shared/bottleneck1_1/dim_red/weights/read/Output_0/Data__const" type="Const" version="opset1">
			<data element_type="f32" offset="3612" shape="8,32,1,1" size="1024"/>
			<output>
				<port id="1" precision="FP32">
					<dim>8</dim>
					<dim>32</dim>
					<dim>1</dim>
					<dim>1</dim>
				</port>
			</output>
		</layer>
		<layer id="12" name="ActionNet/twinnet/shared/bottleneck1_1/dim_red/Conv2D" type="Convolution" version="opset1">
			<data auto_pad="same_upper" dilations="1,1" output_padding="0,0" pads_begin="0,0" pads_end="0,0" strides="1,1"/>
			<input>
				<port id="0">
					<dim>1</dim>
					<dim>32</dim>
					<dim>200</dim>
					<dim>340</dim>
				</port>
				<port id="1">
					<dim>8</dim>
					<dim>32</dim>
					<dim>1</dim>
					<dim>1</dim>
				</port>
			</input>
			<output>
				<port id="2" precision="FP32">
					<dim>1</dim>
					<dim>8</dim>
					<dim>200</dim>
					<dim>340</dim>
				</port>
			</output>
		</layer>
		<layer id="13" name="ActionNet/twinnet/shared/bottleneck1_1/dim_red/biases/read/Output_0/Data_/copy_const" type="Const" version="opset1">
			<data element_type="f32" offset="4636" shape="1,8,1,1" size="32"/>
			<output>
				<port id="1" precision="FP32">
					<dim>1</dim>
					<dim>8</dim>
					<dim>1</dim>
					<dim>1</dim>
				</port>
			</output>
		</layer>
		<layer id="14" name="ActionNet/twinnet/shared/bottleneck1_1/dim_red/BiasAdd/Add" type="Add" version="opset1">
			<input>
				<port id="0">
					<dim>1</dim>
					<dim>8</dim>
					<dim>200</dim>
					<dim>340</dim>
				</port>
				<port id="1">
					<dim>1</dim>
					<dim>8</dim>
					<dim>1</dim>
					<dim>1</dim>
				</port>
			</input>
			<output>
				<port id="2" precision="FP32">
					<dim>1</dim>
					<dim>8</dim>
					<dim>200</dim>
					<dim>340</dim>
				</port>
			</output>
		</layer>
		<layer id="15" name="ActionNet/twinnet/shared/bottleneck1_1/dim_red/ActionNet/twinnet/shared/bottleneck1_1/dim_red_fn_activation28597/Cast_138968_const" type="Const" version="opset1">
			<data element_type="f32" offset="3608" shape="1" size="4"/>
			<output>
				<port id="1" precision="FP32">
					<dim>1</dim>
				</port>
			</output>
		</layer>
		<layer id="16" name="ActionNet/twinnet/shared/bottleneck1_1/dim_red/ActionNet/twinnet/shared/bottleneck1_1/dim_red_fn_activation28597" type="PReLU" version="opset1">
			<input>
				<port id="0">
					<dim>1</dim>
					<dim>8</dim>
					<dim>200</dim>
					<dim>340</dim>
				</port>
				<port id="1">
					<dim>1</dim>
				</port>
			</input>
			<output>
				<port id="2" precision="FP32">
					<dim>1</dim>
					<dim>8</dim>
					<dim>200</dim>
					<dim>340</dim>
				</port>
			</output>
		</layer>
		<layer id="17" name="3733137334_const" type="Const" version="opset1">
			<data element_type="f32" offset="4668" shape="8,1,1,3,3" size="288"/>
			<output>
				<port id="1" precision="FP32">
					<dim>8</dim>
					<dim>1</dim>
					<dim>1</dim>
					<dim>3</dim>
					<dim>3</dim>
				</port>
			</output>
		</layer>
		<layer id="18" name="ActionNet/twinnet/shared/bottleneck1_1/inner_conv/depthwise" type="GroupConvolution" version="opset1">
			<data auto_pad="same_upper" dilations="1,1" output_padding="0,0" pads_begin="1,1" pads_end="1,1" strides="1,1"/>
			<input>
				<port id="0">
					<dim>1</dim>
					<dim>8</dim>
					<dim>200</dim>
					<dim>340</dim>
				</port>
				<port id="1">
					<dim>8</dim>
					<dim>1</dim>
					<dim>1</dim>
					<dim>3</dim>
					<dim>3</dim>
				</port>
			</input>
			<output>
				<port id="2" precision="FP32">
					<dim>1</dim>
					<dim>8</dim>
					<dim>200</dim>
					<dim>340</dim>
				</port>
			</output>
		</layer>
		<layer id="19" name="ActionNet/twinnet/shared/bottleneck1_1/inner_conv/biases/read/Output_0/Data_/copy_const" type="Const" version="opset1">
			<data element_type="f32" offset="4956" shape="1,8,1,1" size="32"/>
			<output>
				<port id="1" precision="FP32">
					<dim>1</dim>
					<dim>8</dim>
					<dim>1</dim>
					<dim>1</dim>
				</port>
			</output>
		</layer>
		<layer id="20" name="ActionNet/twinnet/shared/bottleneck1_1/inner_conv/BiasAdd/Add" type="Add" version="opset1">
			<input>
				<port id="0">
					<dim>1</dim>
					<dim>8</dim>
					<dim>200</dim>
					<dim>340</dim>
				</port>
				<port id="1">
					<dim>1</dim>
					<dim>8</dim>
					<dim>1</dim>
					<dim>1</dim>
				</port>
			</input>
			<output>
				<port id="2" precision="FP32">
					<dim>1</dim>
					<dim>8</dim>
					<dim>200</dim>
					<dim>340</dim>
				</port>
			</output>
		</layer>
		<layer id="21" name="ActionNet/twinnet/shared/bottleneck1_1/inner_conv/ActionNet/twinnet/shared/bottleneck1_1/inner_conv_fn_activation28269/Cast_139214_const" type="Const" version="opset1">
			<data element_type="f32" offset="3608" shape="1" size="4"/>
			<output>
				<port id="1" precision="FP32">
					<dim>1</dim>
				</port>
			</output>
		</layer>
		<layer id="22" name="ActionNet/twinnet/shared/bottleneck1_1/inner_conv/ActionNet/twinnet/shared/bottleneck1_1/inner_conv_fn_activation28269" type="PReLU" version="opset1">
			<input>
				<port id="0">
					<dim>1</dim>
					<dim>8</dim>
					<dim>200</dim>
					<dim>340</dim>
				</port>
				<port id="1">
					<dim>1</dim>
				</port>
			</input>
			<output>
				<port id="2" precision="FP32">
					<dim>1</dim>
					<dim>8</dim>
					<dim>200</dim>
					<dim>340</dim>
				</port>
			</output>
		</layer>
		<layer id="23" name="ActionNet/twinnet/shared/bottleneck1_1/dim_inc/weights/read/Output_0/Data__const" type="Const" version="opset1">
			<data element_type="f32" offset="4988" shape="32,8,1,1" size="1024"/>
			<output>
				<port id="1" precision="FP32">
					<dim>32</dim>
					<dim>8</dim>
					<dim>1</dim>
					<dim>1</dim>
				</port>
			</output>
		</layer>
		<layer id="24" name="ActionNet/twinnet/shared/bottleneck1_1/dim_inc/Conv2D" type="Convolution" version="opset1">
			<data auto_pad="same_upper" dilations="1,1" output_padding="0,0" pads_begin="0,0" pads_end="0,0" strides="1,1"/>
			<input>
				<port id="0">
					<dim>1</dim>
					<dim>8</dim>
					<dim>200</dim>
					<dim>340</dim>
				</port>
				<port id="1">
					<dim>32</dim>
					<dim>8</dim>
					<dim>1</dim>
					<dim>1</dim>
				</port>
			</input>
			<output>
				<port id="2" precision="FP32">
					<dim>1</dim>
					<dim>32</dim>
					<dim>200</dim>
					<dim>340</dim>
				</port>
			</output>
		</layer>
		<layer id="25" name="ActionNet/twinnet/shared/bottleneck1_1/dim_inc/biases/read/Output_0/Data_/copy_const" type="Const" version="opset1">
			<data element_type="f32" offset="6012" shape="1,32,1,1" size="128"/>
			<output>
				<port id="1" precision="FP32">
					<dim>1</dim>
					<dim>32</dim>
					<dim>1</dim>
					<dim>1</dim>
				</port>
			</output>
		</layer>
		<layer id="26" name="ActionNet/twinnet/shared/bottleneck1_1/dim_inc/BiasAdd/Add" type="Add" version="opset1">
			<input>
				<port id="0">
					<dim>1</dim>
					<dim>32</dim>
					<dim>200</dim>
					<dim>340</dim>
				</port>
				<port id="1">
					<dim>1</dim>
					<dim>32</dim>
					<dim>1</dim>
					<dim>1</dim>
				</port>
			</input>
			<output>
				<port id="2" precision="FP32">
					<dim>1</dim>
					<dim>32</dim>
					<dim>200</dim>
					<dim>340</dim>
				</port>
			</output>
		</layer>
		<layer id="27" name="ActionNet/twinnet/shared/bottleneck1_1/Add" type="Add" version="opset1">
			<input>
				<port id="0">
					<dim>1</dim>
					<dim>32</dim>
					<dim>200</dim>
					<dim>340</dim>
				</port>
				<port id="1">
					<dim>1</dim>
					<dim>32</dim>
					<dim>200</dim>
					<dim>340</dim>
				</port>
			</input>
			<output>
				<port id="2" precision="FP32">
					<dim>1</dim>
					<dim>32</dim>
					<dim>200</dim>
					<dim>340</dim>
				</port>
			</output>
		</layer>
		<layer id="28" name="ActionNet/twinnet/shared/bottleneck1_1/LeakyRelu28445/Cast_138938_const" type="Const" version="opset1">
			<data element_type="f32" offset="3608" shape="1" size="4"/>
			<output>
				<port id="1" precision="FP32">
					<dim>1</dim>
				</port>
			</output>
		</layer>
		<layer id="29" name="ActionNet/twinnet/shared/bottleneck1_1/LeakyRelu28445" type="PReLU" version="opset1">
			<input>
				<port id="0">
					<dim>1</dim>
					<dim>32</dim>
					<dim>200</dim>
					<dim>340</dim>
				</port>
				<port id="1">
					<dim>1</dim>
				</port>
			</input>
			<output>
				<port id="2" precision="FP32">
					<dim>1</dim>
					<dim>32</dim>
					<dim>200</dim>
					<dim>340</dim>
				</port>
			</output>
		</layer>
		<layer id="30" name="ActionNet/twinnet/shared/bottleneck1_2/dim_red/weights/read/Output_0/Data__const" type="Const" version="opset1">
			<data element_type="f32" offset="6140" shape="8,32,1,1" size="1024"/>
			<output>
				<port id="1" precision="FP32">
					<dim>8</dim>
					<dim>32</dim>
					<dim>1</dim>
					<dim>1</dim>
				</port>
			</output>
		</layer>
		<layer id="31" name="ActionNet/twinnet/shared/bottleneck1_2/dim_red/Conv2D" type="Convolution" version="opset1">
			<data auto_pad="same_upper" dilations="1,1" output_padding="0,0" pads_begin="0,0" pads_end="0,0" strides="1,1"/>
			<input>
				<port id="0">
					<dim>1</dim>
					<dim>32</dim>
					<dim>200</dim>
					<dim>340</dim>
				</port>
				<port id="1">
					<dim>8</dim>
					<dim>32</dim>
					<dim>1</dim>
					<dim>1</dim>
				</port>
			</input>
			<output>
				<port id="2" precision="FP32">
					<dim>1</dim>
					<dim>8</dim>
					<dim>200</dim>
					<dim>340</dim>
				</port>
			</output>
		</layer>
		<layer id="32" name="ActionNet/twinnet/shared/bottleneck1_2/dim_red/biases/read/Output_0/Data_/copy_const" type="Const" version="opset1">
			<data element_type="f32" offset="7164" shape="1,8,1,1" size="32"/>
			<output>
				<port id="1" precision="FP32">
					<dim>1</dim>
					<dim>8</dim>
					<dim>1</dim>
					<dim>1</dim>
				</port>
			</output>
		</layer>
		<layer id="33" name="ActionNet/twinnet/shared/bottleneck1_2/dim_red/BiasAdd/Add" type="Add" version="opset1">
			<input>
				<port id="0">
					<dim>1</dim>
					<dim>8</dim>
					<dim>200</dim>
					<dim>340</dim>
				</port>
				<port id="1">
					<dim>1</dim>
					<dim>8</dim>
					<dim>1</dim>
					<dim>1</dim>
				</port>
			</input>
			<output>
				<port id="2" precision="FP32">
					<dim>1</dim>
					<dim>8</dim>
					<dim>200</dim>
					<dim>340</dim>
				</port>
			</output>
		</layer>
		<layer id="34" name="ActionNet/twinnet/shared/bottleneck1_2/dim_red/ActionNet/twinnet/shared/bottleneck1_2/dim_red_fn_activation28209/Cast_139010_const" type="Const" version="opset1">
			<data element_type="f32" offset="3608" shape="1" size="4"/>
			<output>
				<port id="1" precision="FP32">
					<dim>1</dim>
				</port>
			</output>
		</layer>
		<layer id="35" name="ActionNet/twinnet/shared/bottleneck1_2/dim_red/ActionNet/twinnet/shared/bottleneck1_2/dim_red_fn_activation28209" type="PReLU" version="opset1">
			<input>
				<port id="0">
					<dim>1</dim>
					<dim>8</dim>
					<dim>200</dim>
					<dim>340</dim>
				</port>
				<port id="1">
					<dim>1</dim>
				</port>
			</input>
			<output>
				<port id="2" precision="FP32">
					<dim>1</dim>
					<dim>8</dim>
					<dim>200</dim>
					<dim>340</dim>
				</port>
			</output>
		</layer>
		<layer id="36" name="3731137314_const" type="Const" version="opset1">
			<data element_type="f32" offset="7196" shape="8,1,1,3,3" size="288"/>
			<output>
				<port id="1" precision="FP32">
					<dim>8</dim>
					<dim>1</dim>
					<dim>1</dim>
					<dim>3</dim>
					<dim>3</dim>
				</port>
			</output>
		</layer>
		<layer id="37" name="ActionNet/twinnet/shared/bottleneck1_2/inner_conv/depthwise" type="GroupConvolution" version="opset1">
			<data auto_pad="same_upper" dilations="1,1" output_padding="0,0" pads_begin="1,1" pads_end="1,1" strides="1,1"/>
			<input>
				<port id="0">
					<dim>1</dim>
					<dim>8</dim>
					<dim>200</dim>
					<dim>340</dim>
				</port>
				<port id="1">
					<dim>8</dim>
					<dim>1</dim>
					<dim>1</dim>
					<dim>3</dim>
					<dim>3</dim>
				</port>
			</input>
			<output>
				<port id="2" precision="FP32">
					<dim>1</dim>
					<dim>8</dim>
					<dim>200</dim>
					<dim>340</dim>
				</port>
			</output>
		</layer>
		<layer id="38" name="ActionNet/twinnet/shared/bottleneck1_2/inner_conv/biases/read/Output_0/Data_/copy_const" type="Const" version="opset1">
			<data element_type="f32" offset="7484" shape="1,8,1,1" size="32"/>
			<output>
				<port id="1" precision="FP32">
					<dim>1</dim>
					<dim>8</dim>
					<dim>1</dim>
					<dim>1</dim>
				</port>
			</output>
		</layer>
		<layer id="39" name="ActionNet/twinnet/shared/bottleneck1_2/inner_conv/BiasAdd/Add" type="Add" version="opset1">
			<input>
				<port id="0">
					<dim>1</dim>
					<dim>8</dim>
					<dim>200</dim>
					<dim>340</dim>
				</port>
				<port id="1">
					<dim>1</dim>
					<dim>8</dim>
					<dim>1</dim>
					<dim>1</dim>
				</port>
			</input>
			<output>
				<port id="2" precision="FP32">
					<dim>1</dim>
					<dim>8</dim>
					<dim>200</dim>
					<dim>340</dim>
				</port>
			</output>
		</layer>
		<layer id="40" name="ActionNet/twinnet/shared/bottleneck1_2/inner_conv/ActionNet/twinnet/shared/bottleneck1_2/inner_conv_fn_activation28193/Cast_139028_const" type="Const" version="opset1">
			<data element_type="f32" offset="3608" shape="1" size="4"/>
			<output>
				<port id="1" precision="FP32">
					<dim>1</dim>
				</port>
			</output>
		</layer>
		<layer id="41" name="ActionNet/twinnet/shared/bottleneck1_2/inner_conv/ActionNet/twinnet/shared/bottleneck1_2/inner_conv_fn_activation28193" type="PReLU" version="opset1">
			<input>
				<port id="0">
					<dim>1</dim>
					<dim>8</dim>
					<dim>200</dim>
					<dim>340</dim>
				</port>
				<port id="1">
					<dim>1</dim>
				</port>
			</input>
			<output>
				<port id="2" precision="FP32">
					<dim>1</dim>
					<dim>8</dim>
					<dim>200</dim>
					<dim>340</dim>
				</port>
			</output>
		</layer>
		<layer id="42" name="ActionNet/twinnet/shared/bottleneck1_2/dim_inc/weights/read/Output_0/Data__const" type="Const" version="opset1">
			<data element_type="f32" offset="7516" shape="32,8,1,1" size="1024"/>
			<output>
				<port id="1" precision="FP32">
					<dim>32</dim>
					<dim>8</dim>
					<dim>1</dim>
					<dim>1</dim>
				</port>
			</output>
		</layer>
		<layer id="43" name="ActionNet/twinnet/shared/bottleneck1_2/dim_inc/Conv2D" type="Convolution" version="opset1">
			<data auto_pad="same_upper" dilations="1,1" output_padding="0,0" pads_begin="0,0" pads_end="0,0" strides="1,1"/>
			<input>
				<port id="0">
					<dim>1</dim>
					<dim>8</dim>
					<dim>200</dim>
					<dim>340</dim>
				</port>
				<port id="1">
					<dim>32</dim>
					<dim>8</dim>
					<dim>1</dim>
					<dim>1</dim>
				</port>
			</input>
			<output>
				<port id="2" precision="FP32">
					<dim>1</dim>
					<dim>32</dim>
					<dim>200</dim>
					<dim>340</dim>
				</port>
			</output>
		</layer>
		<layer id="44" name="ActionNet/twinnet/shared/bottleneck1_2/dim_inc/biases/read/Output_0/Data_/copy_const" type="Const" version="opset1">
			<data element_type="f32" offset="8540" shape="1,32,1,1" size="128"/>
			<output>
				<port id="1" precision="FP32">
					<dim>1</dim>
					<dim>32</dim>
					<dim>1</dim>
					<dim>1</dim>
				</port>
			</output>
		</layer>
		<layer id="45" name="ActionNet/twinnet/shared/bottleneck1_2/dim_inc/BiasAdd/Add" type="Add" version="opset1">
			<input>
				<port id="0">
					<dim>1</dim>
					<dim>32</dim>
					<dim>200</dim>
					<dim>340</dim>
				</port>
				<port id="1">
					<dim>1</dim>
					<dim>32</dim>
					<dim>1</dim>
					<dim>1</dim>
				</port>
			</input>
			<output>
				<port id="2" precision="FP32">
					<dim>1</dim>
					<dim>32</dim>
					<dim>200</dim>
					<dim>340</dim>
				</port>
			</output>
		</layer>
		<layer id="46" name="ActionNet/twinnet/shared/bottleneck1_2/Add" type="Add" version="opset1">
			<input>
				<port id="0">
					<dim>1</dim>
					<dim>32</dim>
					<dim>200</dim>
					<dim>340</dim>
				</port>
				<port id="1">
					<dim>1</dim>
					<dim>32</dim>
					<dim>200</dim>
					<dim>340</dim>
				</port>
			</input>
			<output>
				<port id="2" precision="FP32">
					<dim>1</dim>
					<dim>32</dim>
					<dim>200</dim>
					<dim>340</dim>
				</port>
			</output>
		</layer>
		<layer id="47" name="ActionNet/twinnet/shared/bottleneck1_2/LeakyRelu28301/Cast_139012_const" type="Const" version="opset1">
			<data element_type="f32" offset="3608" shape="1" size="4"/>
			<output>
				<port id="1" precision="FP32">
					<dim>1</dim>
				</port>
			</output>
		</layer>
		<layer id="48" name="ActionNet/twinnet/shared/bottleneck1_2/LeakyRelu28301" type="PReLU" version="opset1">
			<input>
				<port id="0">
					<dim>1</dim>
					<dim>32</dim>
					<dim>200</dim>
					<dim>340</dim>
				</port>
				<port id="1">
					<dim>1</dim>
				</port>
			</input>
			<output>
				<port id="2" precision="FP32">
					<dim>1</dim>
					<dim>32</dim>
					<dim>200</dim>
					<dim>340</dim>
				</port>
			</output>
		</layer>
		<layer id="49" name="ActionNet/twinnet/shared/bottleneck1_3/dim_red/weights/read/Output_0/Data__const" type="Const" version="opset1">
			<data element_type="f32" offset="8668" shape="8,32,1,1" size="1024"/>
			<output>
				<port id="1" precision="FP32">
					<dim>8</dim>
					<dim>32</dim>
					<dim>1</dim>
					<dim>1</dim>
				</port>
			</output>
		</layer>
		<layer id="50" name="ActionNet/twinnet/shared/bottleneck1_3/dim_red/Conv2D" type="Convolution" version="opset1">
			<data auto_pad="same_upper" dilations="1,1" output_padding="0,0" pads_begin="0,0" pads_end="0,0" strides="1,1"/>
			<input>
				<port id="0">
					<dim>1</dim>
					<dim>32</dim>
					<dim>200</dim>
					<dim>340</dim>
				</port>
				<port id="1">
					<dim>8</dim>
					<dim>32</dim>
					<dim>1</dim>
					<dim>1</dim>
				</port>
			</input>
			<output>
				<port id="2" precision="FP32">
					<dim>1</dim>
					<dim>8</dim>
					<dim>200</dim>
					<dim>340</dim>
				</port>
			</output>
		</layer>
		<layer id="51" name="ActionNet/twinnet/shared/bottleneck1_3/dim_red/biases/read/Output_0/Data_/copy_const" type="Const" version="opset1">
			<data element_type="f32" offset="9692" shape="1,8,1,1" size="32"/>
			<output>
				<port id="1" precision="FP32">
					<dim>1</dim>
					<dim>8</dim>
					<dim>1</dim>
					<dim>1</dim>
				</port>
			</output>
		</layer>
		<layer id="52" name="ActionNet/twinnet/shared/bottleneck1_3/dim_red/BiasAdd/Add" type="Add" version="opset1">
			<input>
				<port id="0">
					<dim>1</dim>
					<dim>8</dim>
					<dim>200</dim>
					<dim>340</dim>
				</port>
				<port id="1">
					<dim>1</dim>
					<dim>8</dim>
					<dim>1</dim>
					<dim>1</dim>
				</port>
			</input>
			<output>
				<port id="2" precision="FP32">
					<dim>1</dim>
					<dim>8</dim>
					<dim>200</dim>
					<dim>340</dim>
				</port>
			</output>
		</layer>
		<layer id="53" name="ActionNet/twinnet/shared/bottleneck1_3/dim_red/ActionNet/twinnet/shared/bottleneck1_3/dim_red_fn_activation28737/Cast_138832_const" type="Const" version="opset1">
			<data element_type="f32" offset="3608" shape="1" size="4"/>
			<output>
				<port id="1" precision="FP32">
					<dim>1</dim>
				</port>
			</output>
		</layer>
		<layer id="54" name="ActionNet/twinnet/shared/bottleneck1_3/dim_red/ActionNet/twinnet/shared/bottleneck1_3/dim_red_fn_activation28737" type="PReLU" version="opset1">
			<input>
				<port id="0">
					<dim>1</dim>
					<dim>8</dim>
					<dim>200</dim>
					<dim>340</dim>
				</port>
				<port id="1">
					<dim>1</dim>
				</port>
			</input>
			<output>
				<port id="2" precision="FP32">
					<dim>1</dim>
					<dim>8</dim>
					<dim>200</dim>
					<dim>340</dim>
				</port>
			</output>
		</layer>
		<layer id="55" name="3730737310_const" type="Const" version="opset1">
			<data element_type="f32" offset="9724" shape="8,1,1,3,3" size="288"/>
			<output>
				<port id="1" precision="FP32">
					<dim>8</dim>
					<dim>1</dim>
					<dim>1</dim>
					<dim>3</dim>
					<dim>3</dim>
				</port>
			</output>
		</layer>
		<layer id="56" name="ActionNet/twinnet/shared/bottleneck1_3/inner_conv/depthwise" type="GroupConvolution" version="opset1">
			<data auto_pad="same_upper" dilations="1,1" output_padding="0,0" pads_begin="1,1" pads_end="1,1" strides="1,1"/>
			<input>
				<port id="0">
					<dim>1</dim>
					<dim>8</dim>
					<dim>200</dim>
					<dim>340</dim>
				</port>
				<port id="1">
					<dim>8</dim>
					<dim>1</dim>
					<dim>1</dim>
					<dim>3</dim>
					<dim>3</dim>
				</port>
			</input>
			<output>
				<port id="2" precision="FP32">
					<dim>1</dim>
					<dim>8</dim>
					<dim>200</dim>
					<dim>340</dim>
				</port>
			</output>
		</layer>
		<layer id="57" name="ActionNet/twinnet/shared/bottleneck1_3/inner_conv/biases/read/Output_0/Data_/copy_const" type="Const" version="opset1">
			<data element_type="f32" offset="10012" shape="1,8,1,1" size="32"/>
			<output>
				<port id="1" precision="FP32">
					<dim>1</dim>
					<dim>8</dim>
					<dim>1</dim>
					<dim>1</dim>
				</port>
			</output>
		</layer>
		<layer id="58" name="ActionNet/twinnet/shared/bottleneck1_3/inner_conv/BiasAdd/Add" type="Add" version="opset1">
			<input>
				<port id="0">
					<dim>1</dim>
					<dim>8</dim>
					<dim>200</dim>
					<dim>340</dim>
				</port>
				<port id="1">
					<dim>1</dim>
					<dim>8</dim>
					<dim>1</dim>
					<dim>1</dim>
				</port>
			</input>
			<output>
				<port id="2" precision="FP32">
					<dim>1</dim>
					<dim>8</dim>
					<dim>200</dim>
					<dim>340</dim>
				</port>
			</output>
		</layer>
		<layer id="59" name="ActionNet/twinnet/shared/bottleneck1_3/inner_conv/ActionNet/twinnet/shared/bottleneck1_3/inner_conv_fn_activation28413/Cast_138984_const" type="Const" version="opset1">
			<data element_type="f32" offset="3608" shape="1" size="4"/>
			<output>
				<port id="1" precision="FP32">
					<dim>1</dim>
				</port>
			</output>
		</layer>
		<layer id="60" name="ActionNet/twinnet/shared/bottleneck1_3/inner_conv/ActionNet/twinnet/shared/bottleneck1_3/inner_conv_fn_activation28413" type="PReLU" version="opset1">
			<input>
				<port id="0">
					<dim>1</dim>
					<dim>8</dim>
					<dim>200</dim>
					<dim>340</dim>
				</port>
				<port id="1">
					<dim>1</dim>
				</port>
			</input>
			<output>
				<port id="2" precision="FP32">
					<dim>1</dim>
					<dim>8</dim>
					<dim>200</dim>
					<dim>340</dim>
				</port>
			</output>
		</layer>
		<layer id="61" name="ActionNet/twinnet/shared/bottleneck1_3/dim_inc/weights/read/Output_0/Data__const" type="Const" version="opset1">
			<data element_type="f32" offset="10044" shape="32,8,1,1" size="1024"/>
			<output>
				<port id="1" precision="FP32">
					<dim>32</dim>
					<dim>8</dim>
					<dim>1</dim>
					<dim>1</dim>
				</port>
			</output>
		</layer>
		<layer id="62" name="ActionNet/twinnet/shared/bottleneck1_3/dim_inc/Conv2D" type="Convolution" version="opset1">
			<data auto_pad="same_upper" dilations="1,1" output_padding="0,0" pads_begin="0,0" pads_end="0,0" strides="1,1"/>
			<input>
				<port id="0">
					<dim>1</dim>
					<dim>8</dim>
					<dim>200</dim>
					<dim>340</dim>
				</port>
				<port id="1">
					<dim>32</dim>
					<dim>8</dim>
					<dim>1</dim>
					<dim>1</dim>
				</port>
			</input>
			<output>
				<port id="2" precision="FP32">
					<dim>1</dim>
					<dim>32</dim>
					<dim>200</dim>
					<dim>340</dim>
				</port>
			</output>
		</layer>
		<layer id="63" name="ActionNet/twinnet/shared/bottleneck1_3/dim_inc/biases/read/Output_0/Data_/copy_const" type="Const" version="opset1">
			<data element_type="f32" offset="11068" shape="1,32,1,1" size="128"/>
			<output>
				<port id="1" precision="FP32">
					<dim>1</dim>
					<dim>32</dim>
					<dim>1</dim>
					<dim>1</dim>
				</port>
			</output>
		</layer>
		<layer id="64" name="ActionNet/twinnet/shared/bottleneck1_3/dim_inc/BiasAdd/Add" type="Add" version="opset1">
			<input>
				<port id="0">
					<dim>1</dim>
					<dim>32</dim>
					<dim>200</dim>
					<dim>340</dim>
				</port>
				<port id="1">
					<dim>1</dim>
					<dim>32</dim>
					<dim>1</dim>
					<dim>1</dim>
				</port>
			</input>
			<output>
				<port id="2" precision="FP32">
					<dim>1</dim>
					<dim>32</dim>
					<dim>200</dim>
					<dim>340</dim>
				</port>
			</output>
		</layer>
		<layer id="65" name="ActionNet/twinnet/shared/bottleneck1_3/Add" type="Add" version="opset1">
			<input>
				<port id="0">
					<dim>1</dim>
					<dim>32</dim>
					<dim>200</dim>
					<dim>340</dim>
				</port>
				<port id="1">
					<dim>1</dim>
					<dim>32</dim>
					<dim>200</dim>
					<dim>340</dim>
				</port>
			</input>
			<output>
				<port id="2" precision="FP32">
					<dim>1</dim>
					<dim>32</dim>
					<dim>200</dim>
					<dim>340</dim>
				</port>
			</output>
		</layer>
		<layer id="66" name="ActionNet/twinnet/shared/bottleneck1_3/LeakyRelu28441/Cast_139006_const" type="Const" version="opset1">
			<data element_type="f32" offset="3608" shape="1" size="4"/>
			<output>
				<port id="1" precision="FP32">
					<dim>1</dim>
				</port>
			</output>
		</layer>
		<layer id="67" name="ActionNet/twinnet/shared/bottleneck1_3/LeakyRelu28441" type="PReLU" version="opset1">
			<input>
				<port id="0">
					<dim>1</dim>
					<dim>32</dim>
					<dim>200</dim>
					<dim>340</dim>
				</port>
				<port id="1">
					<dim>1</dim>
				</port>
			</input>
			<output>
				<port id="2" precision="FP32">
					<dim>1</dim>
					<dim>32</dim>
					<dim>200</dim>
					<dim>340</dim>
				</port>
			</output>
		</layer>
		<layer id="68" name="ActionNet/twinnet/shared/bottleneck1_4/dim_red/weights/read/Output_0/Data__const" type="Const" version="opset1">
			<data element_type="f32" offset="11196" shape="8,32,1,1" size="1024"/>
			<output>
				<port id="1" precision="FP32">
					<dim>8</dim>
					<dim>32</dim>
					<dim>1</dim>
					<dim>1</dim>
				</port>
			</output>
		</layer>
		<layer id="69" name="ActionNet/twinnet/shared/bottleneck1_4/dim_red/Conv2D" type="Convolution" version="opset1">
			<data auto_pad="same_upper" dilations="1,1" output_padding="0,0" pads_begin="0,0" pads_end="0,0" strides="1,1"/>
			<input>
				<port id="0">
					<dim>1</dim>
					<dim>32</dim>
					<dim>200</dim>
					<dim>340</dim>
				</port>
				<port id="1">
					<dim>8</dim>
					<dim>32</dim>
					<dim>1</dim>
					<dim>1</dim>
				</port>
			</input>
			<output>
				<port id="2" precision="FP32">
					<dim>1</dim>
					<dim>8</dim>
					<dim>200</dim>
					<dim>340</dim>
				</port>
			</output>
		</layer>
		<layer id="70" name="ActionNet/twinnet/shared/bottleneck1_4/dim_red/biases/read/Output_0/Data_/copy_const" type="Const" version="opset1">
			<data element_type="f32" offset="12220" shape="1,8,1,1" size="32"/>
			<output>
				<port id="1" precision="FP32">
					<dim>1</dim>
					<dim>8</dim>
					<dim>1</dim>
					<dim>1</dim>
				</port>
			</output>
		</layer>
		<layer id="71" name="ActionNet/twinnet/shared/bottleneck1_4/dim_red/BiasAdd/Add" type="Add" version="opset1">
			<input>
				<port id="0">
					<dim>1</dim>
					<dim>8</dim>
					<dim>200</dim>
					<dim>340</dim>
				</port>
				<port id="1">
					<dim>1</dim>
					<dim>8</dim>
					<dim>1</dim>
					<dim>1</dim>
				</port>
			</input>
			<output>
				<port id="2" precision="FP32">
					<dim>1</dim>
					<dim>8</dim>
					<dim>200</dim>
					<dim>340</dim>
				</port>
			</output>
		</layer>
		<layer id="72" name="ActionNet/twinnet/shared/bottleneck1_4/dim_red/ActionNet/twinnet/shared/bottleneck1_4/dim_red_fn_activation28693/Cast_138998_const" type="Const" version="opset1">
			<data element_type="f32" offset="3608" shape="1" size="4"/>
			<output>
				<port id="1" precision="FP32">
					<dim>1</dim>
				</port>
			</output>
		</layer>
		<layer id="73" name="ActionNet/twinnet/shared/bottleneck1_4/dim_red/ActionNet/twinnet/shared/bottleneck1_4/dim_red_fn_activation28693" type="PReLU" version="opset1">
			<input>
				<port id="0">
					<dim>1</dim>
					<dim>8</dim>
					<dim>200</dim>
					<dim>340</dim>
				</port>
				<port id="1">
					<dim>1</dim>
				</port>
			</input>
			<output>
				<port id="2" precision="FP32">
					<dim>1</dim>
					<dim>8</dim>
					<dim>200</dim>
					<dim>340</dim>
				</port>
			</output>
		</layer>
		<layer id="74" name="3735137354_const" type="Const" version="opset1">
			<data element_type="f32" offset="12252" shape="8,1,1,3,3" size="288"/>
			<output>
				<port id="1" precision="FP32">
					<dim>8</dim>
					<dim>1</dim>
					<dim>1</dim>
					<dim>3</dim>
					<dim>3</dim>
				</port>
			</output>
		</layer>
		<layer id="75" name="ActionNet/twinnet/shared/bottleneck1_4/inner_conv/depthwise" type="GroupConvolution" version="opset1">
			<data auto_pad="same_upper" dilations="1,1" output_padding="0,0" pads_begin="1,1" pads_end="1,1" strides="1,1"/>
			<input>
				<port id="0">
					<dim>1</dim>
					<dim>8</dim>
					<dim>200</dim>
					<dim>340</dim>
				</port>
				<port id="1">
					<dim>8</dim>
					<dim>1</dim>
					<dim>1</dim>
					<dim>3</dim>
					<dim>3</dim>
				</port>
			</input>
			<output>
				<port id="2" precision="FP32">
					<dim>1</dim>
					<dim>8</dim>
					<dim>200</dim>
					<dim>340</dim>
				</port>
			</output>
		</layer>
		<layer id="76" name="ActionNet/twinnet/shared/bottleneck1_4/inner_conv/biases/read/Output_0/Data_/copy_const" type="Const" version="opset1">
			<data element_type="f32" offset="12540" shape="1,8,1,1" size="32"/>
			<output>
				<port id="1" precision="FP32">
					<dim>1</dim>
					<dim>8</dim>
					<dim>1</dim>
					<dim>1</dim>
				</port>
			</output>
		</layer>
		<layer id="77" name="ActionNet/twinnet/shared/bottleneck1_4/inner_conv/BiasAdd/Add" type="Add" version="opset1">
			<input>
				<port id="0">
					<dim>1</dim>
					<dim>8</dim>
					<dim>200</dim>
					<dim>340</dim>
				</port>
				<port id="1">
					<dim>1</dim>
					<dim>8</dim>
					<dim>1</dim>
					<dim>1</dim>
				</port>
			</input>
			<output>
				<port id="2" precision="FP32">
					<dim>1</dim>
					<dim>8</dim>
					<dim>200</dim>
					<dim>340</dim>
				</port>
			</output>
		</layer>
		<layer id="78" name="ActionNet/twinnet/shared/bottleneck1_4/inner_conv/ActionNet/twinnet/shared/bottleneck1_4/inner_conv_fn_activation28281/Cast_139004_const" type="Const" version="opset1">
			<data element_type="f32" offset="3608" shape="1" size="4"/>
			<output>
				<port id="1" precision="FP32">
					<dim>1</dim>
				</port>
			</output>
		</layer>
		<layer id="79" name="ActionNet/twinnet/shared/bottleneck1_4/inner_conv/ActionNet/twinnet/shared/bottleneck1_4/inner_conv_fn_activation28281" type="PReLU" version="opset1">
			<input>
				<port id="0">
					<dim>1</dim>
					<dim>8</dim>
					<dim>200</dim>
					<dim>340</dim>
				</port>
				<port id="1">
					<dim>1</dim>
				</port>
			</input>
			<output>
				<port id="2" precision="FP32">
					<dim>1</dim>
					<dim>8</dim>
					<dim>200</dim>
					<dim>340</dim>
				</port>
			</output>
		</layer>
		<layer id="80" name="ActionNet/twinnet/shared/bottleneck1_4/dim_inc/weights/read/Output_0/Data__const" type="Const" version="opset1">
			<data element_type="f32" offset="12572" shape="32,8,1,1" size="1024"/>
			<output>
				<port id="1" precision="FP32">
					<dim>32</dim>
					<dim>8</dim>
					<dim>1</dim>
					<dim>1</dim>
				</port>
			</output>
		</layer>
		<layer id="81" name="ActionNet/twinnet/shared/bottleneck1_4/dim_inc/Conv2D" type="Convolution" version="opset1">
			<data auto_pad="same_upper" dilations="1,1" output_padding="0,0" pads_begin="0,0" pads_end="0,0" strides="1,1"/>
			<input>
				<port id="0">
					<dim>1</dim>
					<dim>8</dim>
					<dim>200</dim>
					<dim>340</dim>
				</port>
				<port id="1">
					<dim>32</dim>
					<dim>8</dim>
					<dim>1</dim>
					<dim>1</dim>
				</port>
			</input>
			<output>
				<port id="2" precision="FP32">
					<dim>1</dim>
					<dim>32</dim>
					<dim>200</dim>
					<dim>340</dim>
				</port>
			</output>
		</layer>
		<layer id="82" name="ActionNet/twinnet/shared/bottleneck1_4/dim_inc/biases/read/Output_0/Data_/copy_const" type="Const" version="opset1">
			<data element_type="f32" offset="13596" shape="1,32,1,1" size="128"/>
			<output>
				<port id="1" precision="FP32">
					<dim>1</dim>
					<dim>32</dim>
					<dim>1</dim>
					<dim>1</dim>
				</port>
			</output>
		</layer>
		<layer id="83" name="ActionNet/twinnet/shared/bottleneck1_4/dim_inc/BiasAdd/Add" type="Add" version="opset1">
			<input>
				<port id="0">
					<dim>1</dim>
					<dim>32</dim>
					<dim>200</dim>
					<dim>340</dim>
				</port>
				<port id="1">
					<dim>1</dim>
					<dim>32</dim>
					<dim>1</dim>
					<dim>1</dim>
				</port>
			</input>
			<output>
				<port id="2" precision="FP32">
					<dim>1</dim>
					<dim>32</dim>
					<dim>200</dim>
					<dim>340</dim>
				</port>
			</output>
		</layer>
		<layer id="84" name="ActionNet/twinnet/shared/bottleneck1_4/Add" type="Add" version="opset1">
			<input>
				<port id="0">
					<dim>1</dim>
					<dim>32</dim>
					<dim>200</dim>
					<dim>340</dim>
				</port>
				<port id="1">
					<dim>1</dim>
					<dim>32</dim>
					<dim>200</dim>
					<dim>340</dim>
				</port>
			</input>
			<output>
				<port id="2" precision="FP32">
					<dim>1</dim>
					<dim>32</dim>
					<dim>200</dim>
					<dim>340</dim>
				</port>
			</output>
		</layer>
		<layer id="85" name="ActionNet/twinnet/shared/bottleneck1_4/LeakyRelu28569/Cast_139196_const" type="Const" version="opset1">
			<data element_type="f32" offset="3608" shape="1" size="4"/>
			<output>
				<port id="1" precision="FP32">
					<dim>1</dim>
				</port>
			</output>
		</layer>
		<layer id="86" name="ActionNet/twinnet/shared/bottleneck1_4/LeakyRelu28569" type="PReLU" version="opset1">
			<input>
				<port id="0">
					<dim>1</dim>
					<dim>32</dim>
					<dim>200</dim>
					<dim>340</dim>
				</port>
				<port id="1">
					<dim>1</dim>
				</port>
			</input>
			<output>
				<port id="2" precision="FP32">
					<dim>1</dim>
					<dim>32</dim>
					<dim>200</dim>
					<dim>340</dim>
				</port>
			</output>
		</layer>
		<layer id="87" name="ActionNet/twinnet/shared/bottleneck2_0/dim_red/weights/read/Output_0/Data__const" type="Const" version="opset1">
			<data element_type="f32" offset="13724" shape="16,32,1,1" size="2048"/>
			<output>
				<port id="1" precision="FP32">
					<dim>16</dim>
					<dim>32</dim>
					<dim>1</dim>
					<dim>1</dim>
				</port>
			</output>
		</layer>
		<layer id="88" name="ActionNet/twinnet/shared/bottleneck2_0/dim_red/Conv2D" type="Convolution" version="opset1">
			<data auto_pad="same_upper" dilations="1,1" output_padding="0,0" pads_begin="0,0" pads_end="0,0" strides="1,1"/>
			<input>
				<port id="0">
					<dim>1</dim>
					<dim>32</dim>
					<dim>200</dim>
					<dim>340</dim>
				</port>
				<port id="1">
					<dim>16</dim>
					<dim>32</dim>
					<dim>1</dim>
					<dim>1</dim>
				</port>
			</input>
			<output>
				<port id="2" precision="FP32">
					<dim>1</dim>
					<dim>16</dim>
					<dim>200</dim>
					<dim>340</dim>
				</port>
			</output>
		</layer>
		<layer id="89" name="ActionNet/twinnet/shared/bottleneck2_0/dim_red/biases/read/Output_0/Data_/copy_const" type="Const" version="opset1">
			<data element_type="f32" offset="15772" shape="1,16,1,1" size="64"/>
			<output>
				<port id="1" precision="FP32">
					<dim>1</dim>
					<dim>16</dim>
					<dim>1</dim>
					<dim>1</dim>
				</port>
			</output>
		</layer>
		<layer id="90" name="ActionNet/twinnet/shared/bottleneck2_0/dim_red/BiasAdd/Add" type="Add" version="opset1">
			<input>
				<port id="0">
					<dim>1</dim>
					<dim>16</dim>
					<dim>200</dim>
					<dim>340</dim>
				</port>
				<port id="1">
					<dim>1</dim>
					<dim>16</dim>
					<dim>1</dim>
					<dim>1</dim>
				</port>
			</input>
			<output>
				<port id="2" precision="FP32">
					<dim>1</dim>
					<dim>16</dim>
					<dim>200</dim>
					<dim>340</dim>
				</port>
			</output>
		</layer>
		<layer id="91" name="ActionNet/twinnet/shared/bottleneck2_0/dim_red/ActionNet/twinnet/shared/bottleneck2_0/dim_red_fn_activation28249/Cast_138868_const" type="Const" version="opset1">
			<data element_type="f32" offset="3608" shape="1" size="4"/>
			<output>
				<port id="1" precision="FP32">
					<dim>1</dim>
				</port>
			</output>
		</layer>
		<layer id="92" name="ActionNet/twinnet/shared/bottleneck2_0/dim_red/ActionNet/twinnet/shared/bottleneck2_0/dim_red_fn_activation28249" type="PReLU" version="opset1">
			<input>
				<port id="0">
					<dim>1</dim>
					<dim>16</dim>
					<dim>200</dim>
					<dim>340</dim>
				</port>
				<port id="1">
					<dim>1</dim>
				</port>
			</input>
			<output>
				<port id="2" precision="FP32">
					<dim>1</dim>
					<dim>16</dim>
					<dim>200</dim>
					<dim>340</dim>
				</port>
			</output>
		</layer>
		<layer id="93" name="3727137274_const" type="Const" version="opset1">
			<data element_type="f32" offset="15836" shape="16,1,1,3,3" size="576"/>
			<output>
				<port id="1" precision="FP32">
					<dim>16</dim>
					<dim>1</dim>
					<dim>1</dim>
					<dim>3</dim>
					<dim>3</dim>
				</port>
			</output>
		</layer>
		<layer id="94" name="ActionNet/twinnet/shared/bottleneck2_0/inner_conv/depthwise" type="GroupConvolution" version="opset1">
			<data auto_pad="same_upper" dilations="1,1" output_padding="0,0" pads_begin="0,0" pads_end="1,1" strides="2,2"/>
			<input>
				<port id="0">
					<dim>1</dim>
					<dim>16</dim>
					<dim>200</dim>
					<dim>340</dim>
				</port>
				<port id="1">
					<dim>16</dim>
					<dim>1</dim>
					<dim>1</dim>
					<dim>3</dim>
					<dim>3</dim>
				</port>
			</input>
			<output>
				<port id="2" precision="FP32">
					<dim>1</dim>
					<dim>16</dim>
					<dim>100</dim>
					<dim>170</dim>
				</port>
			</output>
		</layer>
		<layer id="95" name="ActionNet/twinnet/shared/bottleneck2_0/inner_conv/biases/read/Output_0/Data_/copy_const" type="Const" version="opset1">
			<data element_type="f32" offset="16412" shape="1,16,1,1" size="64"/>
			<output>
				<port id="1" precision="FP32">
					<dim>1</dim>
					<dim>16</dim>
					<dim>1</dim>
					<dim>1</dim>
				</port>
			</output>
		</layer>
		<layer id="96" name="ActionNet/twinnet/shared/bottleneck2_0/inner_conv/BiasAdd/Add" type="Add" version="opset1">
			<input>
				<port id="0">
					<dim>1</dim>
					<dim>16</dim>
					<dim>100</dim>
					<dim>170</dim>
				</port>
				<port id="1">
					<dim>1</dim>
					<dim>16</dim>
					<dim>1</dim>
					<dim>1</dim>
				</port>
			</input>
			<output>
				<port id="2" precision="FP32">
					<dim>1</dim>
					<dim>16</dim>
					<dim>100</dim>
					<dim>170</dim>
				</port>
			</output>
		</layer>
		<layer id="97" name="ActionNet/twinnet/shared/bottleneck2_0/inner_conv/ActionNet/twinnet/shared/bottleneck2_0/inner_conv_fn_activation28549/Cast_138892_const" type="Const" version="opset1">
			<data element_type="f32" offset="3608" shape="1" size="4"/>
			<output>
				<port id="1" precision="FP32">
					<dim>1</dim>
				</port>
			</output>
		</layer>
		<layer id="98" name="ActionNet/twinnet/shared/bottleneck2_0/inner_conv/ActionNet/twinnet/shared/bottleneck2_0/inner_conv_fn_activation28549" type="PReLU" version="opset1">
			<input>
				<port id="0">
					<dim>1</dim>
					<dim>16</dim>
					<dim>100</dim>
					<dim>170</dim>
				</port>
				<port id="1">
					<dim>1</dim>
				</port>
			</input>
			<output>
				<port id="2" precision="FP32">
					<dim>1</dim>
					<dim>16</dim>
					<dim>100</dim>
					<dim>170</dim>
				</port>
			</output>
		</layer>
		<layer id="99" name="ActionNet/twinnet/shared/bottleneck2_0/dim_inc/weights/read/Output_0/Data__const" type="Const" version="opset1">
			<data element_type="f32" offset="16476" shape="64,16,1,1" size="4096"/>
			<output>
				<port id="1" precision="FP32">
					<dim>64</dim>
					<dim>16</dim>
					<dim>1</dim>
					<dim>1</dim>
				</port>
			</output>
		</layer>
		<layer id="100" name="ActionNet/twinnet/shared/bottleneck2_0/dim_inc/Conv2D" type="Convolution" version="opset1">
			<data auto_pad="same_upper" dilations="1,1" output_padding="0,0" pads_begin="0,0" pads_end="0,0" strides="1,1"/>
			<input>
				<port id="0">
					<dim>1</dim>
					<dim>16</dim>
					<dim>100</dim>
					<dim>170</dim>
				</port>
				<port id="1">
					<dim>64</dim>
					<dim>16</dim>
					<dim>1</dim>
					<dim>1</dim>
				</port>
			</input>
			<output>
				<port id="2" precision="FP32">
					<dim>1</dim>
					<dim>64</dim>
					<dim>100</dim>
					<dim>170</dim>
				</port>
			</output>
		</layer>
		<layer id="101" name="ActionNet/twinnet/shared/bottleneck2_0/dim_inc/biases/read/Output_0/Data_/copy_const" type="Const" version="opset1">
			<data element_type="f32" offset="20572" shape="1,64,1,1" size="256"/>
			<output>
				<port id="1" precision="FP32">
					<dim>1</dim>
					<dim>64</dim>
					<dim>1</dim>
					<dim>1</dim>
				</port>
			</output>
		</layer>
		<layer id="102" name="ActionNet/twinnet/shared/bottleneck2_0/dim_inc/BiasAdd/Add" type="Add" version="opset1">
			<input>
				<port id="0">
					<dim>1</dim>
					<dim>64</dim>
					<dim>100</dim>
					<dim>170</dim>
				</port>
				<port id="1">
					<dim>1</dim>
					<dim>64</dim>
					<dim>1</dim>
					<dim>1</dim>
				</port>
			</input>
			<output>
				<port id="2" precision="FP32">
					<dim>1</dim>
					<dim>64</dim>
					<dim>100</dim>
					<dim>170</dim>
				</port>
			</output>
		</layer>
		<layer id="103" name="ActionNet/twinnet/shared/bottleneck2_0/max_pool/MaxPool" type="MaxPool" version="opset1">
			<data auto_pad="same_upper" kernel="2,2" pads_begin="0,0" pads_end="0,0" strides="2,2"/>
			<input>
				<port id="0">
					<dim>1</dim>
					<dim>32</dim>
					<dim>200</dim>
					<dim>340</dim>
				</port>
			</input>
			<output>
				<port id="1" precision="FP32">
					<dim>1</dim>
					<dim>32</dim>
					<dim>100</dim>
					<dim>170</dim>
				</port>
			</output>
		</layer>
		<layer id="104" name="ActionNet/twinnet/shared/bottleneck2_0/skip_conv/weights/read/Output_0/Data__const" type="Const" version="opset1">
			<data element_type="f32" offset="20828" shape="64,32,1,1" size="8192"/>
			<output>
				<port id="1" precision="FP32">
					<dim>64</dim>
					<dim>32</dim>
					<dim>1</dim>
					<dim>1</dim>
				</port>
			</output>
		</layer>
		<layer id="105" name="ActionNet/twinnet/shared/bottleneck2_0/skip_conv/Conv2D" type="Convolution" version="opset1">
			<data auto_pad="same_upper" dilations="1,1" output_padding="0,0" pads_begin="0,0" pads_end="0,0" strides="1,1"/>
			<input>
				<port id="0">
					<dim>1</dim>
					<dim>32</dim>
					<dim>100</dim>
					<dim>170</dim>
				</port>
				<port id="1">
					<dim>64</dim>
					<dim>32</dim>
					<dim>1</dim>
					<dim>1</dim>
				</port>
			</input>
			<output>
				<port id="2" precision="FP32">
					<dim>1</dim>
					<dim>64</dim>
					<dim>100</dim>
					<dim>170</dim>
				</port>
			</output>
		</layer>
		<layer id="106" name="ActionNet/twinnet/shared/bottleneck2_0/skip_conv/biases/read/Output_0/Data_/copy_const" type="Const" version="opset1">
			<data element_type="f32" offset="29020" shape="1,64,1,1" size="256"/>
			<output>
				<port id="1" precision="FP32">
					<dim>1</dim>
					<dim>64</dim>
					<dim>1</dim>
					<dim>1</dim>
				</port>
			</output>
		</layer>
		<layer id="107" name="ActionNet/twinnet/shared/bottleneck2_0/skip_conv/BiasAdd/Add" type="Add" version="opset1">
			<input>
				<port id="0">
					<dim>1</dim>
					<dim>64</dim>
					<dim>100</dim>
					<dim>170</dim>
				</port>
				<port id="1">
					<dim>1</dim>
					<dim>64</dim>
					<dim>1</dim>
					<dim>1</dim>
				</port>
			</input>
			<output>
				<port id="2" precision="FP32">
					<dim>1</dim>
					<dim>64</dim>
					<dim>100</dim>
					<dim>170</dim>
				</port>
			</output>
		</layer>
		<layer id="108" name="ActionNet/twinnet/shared/bottleneck2_0/Add" type="Add" version="opset1">
			<input>
				<port id="0">
					<dim>1</dim>
					<dim>64</dim>
					<dim>100</dim>
					<dim>170</dim>
				</port>
				<port id="1">
					<dim>1</dim>
					<dim>64</dim>
					<dim>100</dim>
					<dim>170</dim>
				</port>
			</input>
			<output>
				<port id="2" precision="FP32">
					<dim>1</dim>
					<dim>64</dim>
					<dim>100</dim>
					<dim>170</dim>
				</port>
			</output>
		</layer>
		<layer id="109" name="ActionNet/twinnet/shared/bottleneck2_0/LeakyRelu28253/Cast_138884_const" type="Const" version="opset1">
			<data element_type="f32" offset="3608" shape="1" size="4"/>
			<output>
				<port id="1" precision="FP32">
					<dim>1</dim>
				</port>
			</output>
		</layer>
		<layer id="110" name="ActionNet/twinnet/shared/bottleneck2_0/LeakyRelu28253" type="PReLU" version="opset1">
			<input>
				<port id="0">
					<dim>1</dim>
					<dim>64</dim>
					<dim>100</dim>
					<dim>170</dim>
				</port>
				<port id="1">
					<dim>1</dim>
				</port>
			</input>
			<output>
				<port id="2" precision="FP32">
					<dim>1</dim>
					<dim>64</dim>
					<dim>100</dim>
					<dim>170</dim>
				</port>
			</output>
		</layer>
		<layer id="111" name="ActionNet/twinnet/shared/bottleneck2_1/dim_red/weights/read/Output_0/Data__const" type="Const" version="opset1">
			<data element_type="f32" offset="29276" shape="16,64,1,1" size="4096"/>
			<output>
				<port id="1" precision="FP32">
					<dim>16</dim>
					<dim>64</dim>
					<dim>1</dim>
					<dim>1</dim>
				</port>
			</output>
		</layer>
		<layer id="112" name="ActionNet/twinnet/shared/bottleneck2_1/dim_red/Conv2D" type="Convolution" version="opset1">
			<data auto_pad="same_upper" dilations="1,1" output_padding="0,0" pads_begin="0,0" pads_end="0,0" strides="1,1"/>
			<input>
				<port id="0">
					<dim>1</dim>
					<dim>64</dim>
					<dim>100</dim>
					<dim>170</dim>
				</port>
				<port id="1">
					<dim>16</dim>
					<dim>64</dim>
					<dim>1</dim>
					<dim>1</dim>
				</port>
			</input>
			<output>
				<port id="2" precision="FP32">
					<dim>1</dim>
					<dim>16</dim>
					<dim>100</dim>
					<dim>170</dim>
				</port>
			</output>
		</layer>
		<layer id="113" name="ActionNet/twinnet/shared/bottleneck2_1/dim_red/biases/read/Output_0/Data_/copy_const" type="Const" version="opset1">
			<data element_type="f32" offset="33372" shape="1,16,1,1" size="64"/>
			<output>
				<port id="1" precision="FP32">
					<dim>1</dim>
					<dim>16</dim>
					<dim>1</dim>
					<dim>1</dim>
				</port>
			</output>
		</layer>
		<layer id="114" name="ActionNet/twinnet/shared/bottleneck2_1/dim_red/BiasAdd/Add" type="Add" version="opset1">
			<input>
				<port id="0">
					<dim>1</dim>
					<dim>16</dim>
					<dim>100</dim>
					<dim>170</dim>
				</port>
				<port id="1">
					<dim>1</dim>
					<dim>16</dim>
					<dim>1</dim>
					<dim>1</dim>
				</port>
			</input>
			<output>
				<port id="2" precision="FP32">
					<dim>1</dim>
					<dim>16</dim>
					<dim>100</dim>
					<dim>170</dim>
				</port>
			</output>
		</layer>
		<layer id="115" name="ActionNet/twinnet/shared/bottleneck2_1/dim_red/ActionNet/twinnet/shared/bottleneck2_1/dim_red_fn_activation28641/Cast_138856_const" type="Const" version="opset1">
			<data element_type="f32" offset="3608" shape="1" size="4"/>
			<output>
				<port id="1" precision="FP32">
					<dim>1</dim>
				</port>
			</output>
		</layer>
		<layer id="116" name="ActionNet/twinnet/shared/bottleneck2_1/dim_red/ActionNet/twinnet/shared/bottleneck2_1/dim_red_fn_activation28641" type="PReLU" version="opset1">
			<input>
				<port id="0">
					<dim>1</dim>
					<dim>16</dim>
					<dim>100</dim>
					<dim>170</dim>
				</port>
				<port id="1">
					<dim>1</dim>
				</port>
			</input>
			<output>
				<port id="2" precision="FP32">
					<dim>1</dim>
					<dim>16</dim>
					<dim>100</dim>
					<dim>170</dim>
				</port>
			</output>
		</layer>
		<layer id="117" name="3732337326_const" type="Const" version="opset1">
			<data element_type="f32" offset="33436" shape="16,1,1,3,3" size="576"/>
			<output>
				<port id="1" precision="FP32">
					<dim>16</dim>
					<dim>1</dim>
					<dim>1</dim>
					<dim>3</dim>
					<dim>3</dim>
				</port>
			</output>
		</layer>
		<layer id="118" name="ActionNet/twinnet/shared/bottleneck2_1/inner_conv/depthwise" type="GroupConvolution" version="opset1">
			<data auto_pad="same_upper" dilations="1,1" output_padding="0,0" pads_begin="1,1" pads_end="1,1" strides="1,1"/>
			<input>
				<port id="0">
					<dim>1</dim>
					<dim>16</dim>
					<dim>100</dim>
					<dim>170</dim>
				</port>
				<port id="1">
					<dim>16</dim>
					<dim>1</dim>
					<dim>1</dim>
					<dim>3</dim>
					<dim>3</dim>
				</port>
			</input>
			<output>
				<port id="2" precision="FP32">
					<dim>1</dim>
					<dim>16</dim>
					<dim>100</dim>
					<dim>170</dim>
				</port>
			</output>
		</layer>
		<layer id="119" name="ActionNet/twinnet/shared/bottleneck2_1/inner_conv/biases/read/Output_0/Data_/copy_const" type="Const" version="opset1">
			<data element_type="f32" offset="34012" shape="1,16,1,1" size="64"/>
			<output>
				<port id="1" precision="FP32">
					<dim>1</dim>
					<dim>16</dim>
					<dim>1</dim>
					<dim>1</dim>
				</port>
			</output>
		</layer>
		<layer id="120" name="ActionNet/twinnet/shared/bottleneck2_1/inner_conv/BiasAdd/Add" type="Add" version="opset1">
			<input>
				<port id="0">
					<dim>1</dim>
					<dim>16</dim>
					<dim>100</dim>
					<dim>170</dim>
				</port>
				<port id="1">
					<dim>1</dim>
					<dim>16</dim>
					<dim>1</dim>
					<dim>1</dim>
				</port>
			</input>
			<output>
				<port id="2" precision="FP32">
					<dim>1</dim>
					<dim>16</dim>
					<dim>100</dim>
					<dim>170</dim>
				</port>
			</output>
		</layer>
		<layer id="121" name="ActionNet/twinnet/shared/bottleneck2_1/inner_conv/ActionNet/twinnet/shared/bottleneck2_1/inner_conv_fn_activation28837/Cast_138864_const" type="Const" version="opset1">
			<data element_type="f32" offset="3608" shape="1" size="4"/>
			<output>
				<port id="1" precision="FP32">
					<dim>1</dim>
				</port>
			</output>
		</layer>
		<layer id="122" name="ActionNet/twinnet/shared/bottleneck2_1/inner_conv/ActionNet/twinnet/shared/bottleneck2_1/inner_conv_fn_activation28837" type="PReLU" version="opset1">
			<input>
				<port id="0">
					<dim>1</dim>
					<dim>16</dim>
					<dim>100</dim>
					<dim>170</dim>
				</port>
				<port id="1">
					<dim>1</dim>
				</port>
			</input>
			<output>
				<port id="2" precision="FP32">
					<dim>1</dim>
					<dim>16</dim>
					<dim>100</dim>
					<dim>170</dim>
				</port>
			</output>
		</layer>
		<layer id="123" name="ActionNet/twinnet/shared/bottleneck2_1/dim_inc/weights/read/Output_0/Data__const" type="Const" version="opset1">
			<data element_type="f32" offset="34076" shape="64,16,1,1" size="4096"/>
			<output>
				<port id="1" precision="FP32">
					<dim>64</dim>
					<dim>16</dim>
					<dim>1</dim>
					<dim>1</dim>
				</port>
			</output>
		</layer>
		<layer id="124" name="ActionNet/twinnet/shared/bottleneck2_1/dim_inc/Conv2D" type="Convolution" version="opset1">
			<data auto_pad="same_upper" dilations="1,1" output_padding="0,0" pads_begin="0,0" pads_end="0,0" strides="1,1"/>
			<input>
				<port id="0">
					<dim>1</dim>
					<dim>16</dim>
					<dim>100</dim>
					<dim>170</dim>
				</port>
				<port id="1">
					<dim>64</dim>
					<dim>16</dim>
					<dim>1</dim>
					<dim>1</dim>
				</port>
			</input>
			<output>
				<port id="2" precision="FP32">
					<dim>1</dim>
					<dim>64</dim>
					<dim>100</dim>
					<dim>170</dim>
				</port>
			</output>
		</layer>
		<layer id="125" name="ActionNet/twinnet/shared/bottleneck2_1/dim_inc/biases/read/Output_0/Data_/copy_const" type="Const" version="opset1">
			<data element_type="f32" offset="38172" shape="1,64,1,1" size="256"/>
			<output>
				<port id="1" precision="FP32">
					<dim>1</dim>
					<dim>64</dim>
					<dim>1</dim>
					<dim>1</dim>
				</port>
			</output>
		</layer>
		<layer id="126" name="ActionNet/twinnet/shared/bottleneck2_1/dim_inc/BiasAdd/Add" type="Add" version="opset1">
			<input>
				<port id="0">
					<dim>1</dim>
					<dim>64</dim>
					<dim>100</dim>
					<dim>170</dim>
				</port>
				<port id="1">
					<dim>1</dim>
					<dim>64</dim>
					<dim>1</dim>
					<dim>1</dim>
				</port>
			</input>
			<output>
				<port id="2" precision="FP32">
					<dim>1</dim>
					<dim>64</dim>
					<dim>100</dim>
					<dim>170</dim>
				</port>
			</output>
		</layer>
		<layer id="127" name="ActionNet/twinnet/shared/bottleneck2_1/Add" type="Add" version="opset1">
			<input>
				<port id="0">
					<dim>1</dim>
					<dim>64</dim>
					<dim>100</dim>
					<dim>170</dim>
				</port>
				<port id="1">
					<dim>1</dim>
					<dim>64</dim>
					<dim>100</dim>
					<dim>170</dim>
				</port>
			</input>
			<output>
				<port id="2" precision="FP32">
					<dim>1</dim>
					<dim>64</dim>
					<dim>100</dim>
					<dim>170</dim>
				</port>
			</output>
		</layer>
		<layer id="128" name="ActionNet/twinnet/shared/bottleneck2_1/LeakyRelu28793/Cast_138830_const" type="Const" version="opset1">
			<data element_type="f32" offset="3608" shape="1" size="4"/>
			<output>
				<port id="1" precision="FP32">
					<dim>1</dim>
				</port>
			</output>
		</layer>
		<layer id="129" name="ActionNet/twinnet/shared/bottleneck2_1/LeakyRelu28793" type="PReLU" version="opset1">
			<input>
				<port id="0">
					<dim>1</dim>
					<dim>64</dim>
					<dim>100</dim>
					<dim>170</dim>
				</port>
				<port id="1">
					<dim>1</dim>
				</port>
			</input>
			<output>
				<port id="2" precision="FP32">
					<dim>1</dim>
					<dim>64</dim>
					<dim>100</dim>
					<dim>170</dim>
				</port>
			</output>
		</layer>
		<layer id="130" name="ActionNet/twinnet/shared/bottleneck2_2/dim_red/weights/read/Output_0/Data__const" type="Const" version="opset1">
			<data element_type="f32" offset="38428" shape="16,64,1,1" size="4096"/>
			<output>
				<port id="1" precision="FP32">
					<dim>16</dim>
					<dim>64</dim>
					<dim>1</dim>
					<dim>1</dim>
				</port>
			</output>
		</layer>
		<layer id="131" name="ActionNet/twinnet/shared/bottleneck2_2/dim_red/Conv2D" type="Convolution" version="opset1">
			<data auto_pad="same_upper" dilations="1,1" output_padding="0,0" pads_begin="0,0" pads_end="0,0" strides="1,1"/>
			<input>
				<port id="0">
					<dim>1</dim>
					<dim>64</dim>
					<dim>100</dim>
					<dim>170</dim>
				</port>
				<port id="1">
					<dim>16</dim>
					<dim>64</dim>
					<dim>1</dim>
					<dim>1</dim>
				</port>
			</input>
			<output>
				<port id="2" precision="FP32">
					<dim>1</dim>
					<dim>16</dim>
					<dim>100</dim>
					<dim>170</dim>
				</port>
			</output>
		</layer>
		<layer id="132" name="ActionNet/twinnet/shared/bottleneck2_2/dim_red/biases/read/Output_0/Data_/copy_const" type="Const" version="opset1">
			<data element_type="f32" offset="42524" shape="1,16,1,1" size="64"/>
			<output>
				<port id="1" precision="FP32">
					<dim>1</dim>
					<dim>16</dim>
					<dim>1</dim>
					<dim>1</dim>
				</port>
			</output>
		</layer>
		<layer id="133" name="ActionNet/twinnet/shared/bottleneck2_2/dim_red/BiasAdd/Add" type="Add" version="opset1">
			<input>
				<port id="0">
					<dim>1</dim>
					<dim>16</dim>
					<dim>100</dim>
					<dim>170</dim>
				</port>
				<port id="1">
					<dim>1</dim>
					<dim>16</dim>
					<dim>1</dim>
					<dim>1</dim>
				</port>
			</input>
			<output>
				<port id="2" precision="FP32">
					<dim>1</dim>
					<dim>16</dim>
					<dim>100</dim>
					<dim>170</dim>
				</port>
			</output>
		</layer>
		<layer id="134" name="ActionNet/twinnet/shared/bottleneck2_2/dim_red/ActionNet/twinnet/shared/bottleneck2_2/dim_red_fn_activation28825/Cast_138888_const" type="Const" version="opset1">
			<data element_type="f32" offset="3608" shape="1" size="4"/>
			<output>
				<port id="1" precision="FP32">
					<dim>1</dim>
				</port>
			</output>
		</layer>
		<layer id="135" name="ActionNet/twinnet/shared/bottleneck2_2/dim_red/ActionNet/twinnet/shared/bottleneck2_2/dim_red_fn_activation28825" type="PReLU" version="opset1">
			<input>
				<port id="0">
					<dim>1</dim>
					<dim>16</dim>
					<dim>100</dim>
					<dim>170</dim>
				</port>
				<port id="1">
					<dim>1</dim>
				</port>
			</input>
			<output>
				<port id="2" precision="FP32">
					<dim>1</dim>
					<dim>16</dim>
					<dim>100</dim>
					<dim>170</dim>
				</port>
			</output>
		</layer>
		<layer id="136" name="3739137394_const" type="Const" version="opset1">
			<data element_type="f32" offset="42588" shape="16,1,1,3,3" size="576"/>
			<output>
				<port id="1" precision="FP32">
					<dim>16</dim>
					<dim>1</dim>
					<dim>1</dim>
					<dim>3</dim>
					<dim>3</dim>
				</port>
			</output>
		</layer>
		<layer id="137" name="ActionNet/twinnet/shared/bottleneck2_2/inner_conv/depthwise" type="GroupConvolution" version="opset1">
			<data auto_pad="same_upper" dilations="1,1" output_padding="0,0" pads_begin="1,1" pads_end="1,1" strides="1,1"/>
			<input>
				<port id="0">
					<dim>1</dim>
					<dim>16</dim>
					<dim>100</dim>
					<dim>170</dim>
				</port>
				<port id="1">
					<dim>16</dim>
					<dim>1</dim>
					<dim>1</dim>
					<dim>3</dim>
					<dim>3</dim>
				</port>
			</input>
			<output>
				<port id="2" precision="FP32">
					<dim>1</dim>
					<dim>16</dim>
					<dim>100</dim>
					<dim>170</dim>
				</port>
			</output>
		</layer>
		<layer id="138" name="ActionNet/twinnet/shared/bottleneck2_2/inner_conv/biases/read/Output_0/Data_/copy_const" type="Const" version="opset1">
			<data element_type="f32" offset="43164" shape="1,16,1,1" size="64"/>
			<output>
				<port id="1" precision="FP32">
					<dim>1</dim>
					<dim>16</dim>
					<dim>1</dim>
					<dim>1</dim>
				</port>
			</output>
		</layer>
		<layer id="139" name="ActionNet/twinnet/shared/bottleneck2_2/inner_conv/BiasAdd/Add" type="Add" version="opset1">
			<input>
				<port id="0">
					<dim>1</dim>
					<dim>16</dim>
					<dim>100</dim>
					<dim>170</dim>
				</port>
				<port id="1">
					<dim>1</dim>
					<dim>16</dim>
					<dim>1</dim>
					<dim>1</dim>
				</port>
			</input>
			<output>
				<port id="2" precision="FP32">
					<dim>1</dim>
					<dim>16</dim>
					<dim>100</dim>
					<dim>170</dim>
				</port>
			</output>
		</layer>
		<layer id="140" name="ActionNet/twinnet/shared/bottleneck2_2/inner_conv/ActionNet/twinnet/shared/bottleneck2_2/inner_conv_fn_activation28661/Cast_139120_const" type="Const" version="opset1">
			<data element_type="f32" offset="3608" shape="1" size="4"/>
			<output>
				<port id="1" precision="FP32">
					<dim>1</dim>
				</port>
			</output>
		</layer>
		<layer id="141" name="ActionNet/twinnet/shared/bottleneck2_2/inner_conv/ActionNet/twinnet/shared/bottleneck2_2/inner_conv_fn_activation28661" type="PReLU" version="opset1">
			<input>
				<port id="0">
					<dim>1</dim>
					<dim>16</dim>
					<dim>100</dim>
					<dim>170</dim>
				</port>
				<port id="1">
					<dim>1</dim>
				</port>
			</input>
			<output>
				<port id="2" precision="FP32">
					<dim>1</dim>
					<dim>16</dim>
					<dim>100</dim>
					<dim>170</dim>
				</port>
			</output>
		</layer>
		<layer id="142" name="ActionNet/twinnet/shared/bottleneck2_2/dim_inc/weights/read/Output_0/Data__const" type="Const" version="opset1">
			<data element_type="f32" offset="43228" shape="64,16,1,1" size="4096"/>
			<output>
				<port id="1" precision="FP32">
					<dim>64</dim>
					<dim>16</dim>
					<dim>1</dim>
					<dim>1</dim>
				</port>
			</output>
		</layer>
		<layer id="143" name="ActionNet/twinnet/shared/bottleneck2_2/dim_inc/Conv2D" type="Convolution" version="opset1">
			<data auto_pad="same_upper" dilations="1,1" output_padding="0,0" pads_begin="0,0" pads_end="0,0" strides="1,1"/>
			<input>
				<port id="0">
					<dim>1</dim>
					<dim>16</dim>
					<dim>100</dim>
					<dim>170</dim>
				</port>
				<port id="1">
					<dim>64</dim>
					<dim>16</dim>
					<dim>1</dim>
					<dim>1</dim>
				</port>
			</input>
			<output>
				<port id="2" precision="FP32">
					<dim>1</dim>
					<dim>64</dim>
					<dim>100</dim>
					<dim>170</dim>
				</port>
			</output>
		</layer>
		<layer id="144" name="ActionNet/twinnet/shared/bottleneck2_2/dim_inc/biases/read/Output_0/Data_/copy_const" type="Const" version="opset1">
			<data element_type="f32" offset="47324" shape="1,64,1,1" size="256"/>
			<output>
				<port id="1" precision="FP32">
					<dim>1</dim>
					<dim>64</dim>
					<dim>1</dim>
					<dim>1</dim>
				</port>
			</output>
		</layer>
		<layer id="145" name="ActionNet/twinnet/shared/bottleneck2_2/dim_inc/BiasAdd/Add" type="Add" version="opset1">
			<input>
				<port id="0">
					<dim>1</dim>
					<dim>64</dim>
					<dim>100</dim>
					<dim>170</dim>
				</port>
				<port id="1">
					<dim>1</dim>
					<dim>64</dim>
					<dim>1</dim>
					<dim>1</dim>
				</port>
			</input>
			<output>
				<port id="2" precision="FP32">
					<dim>1</dim>
					<dim>64</dim>
					<dim>100</dim>
					<dim>170</dim>
				</port>
			</output>
		</layer>
		<layer id="146" name="ActionNet/twinnet/shared/bottleneck2_2/Add" type="Add" version="opset1">
			<input>
				<port id="0">
					<dim>1</dim>
					<dim>64</dim>
					<dim>100</dim>
					<dim>170</dim>
				</port>
				<port id="1">
					<dim>1</dim>
					<dim>64</dim>
					<dim>100</dim>
					<dim>170</dim>
				</port>
			</input>
			<output>
				<port id="2" precision="FP32">
					<dim>1</dim>
					<dim>64</dim>
					<dim>100</dim>
					<dim>170</dim>
				</port>
			</output>
		</layer>
		<layer id="147" name="ActionNet/twinnet/shared/bottleneck2_2/LeakyRelu28353/Cast_138796_const" type="Const" version="opset1">
			<data element_type="f32" offset="3608" shape="1" size="4"/>
			<output>
				<port id="1" precision="FP32">
					<dim>1</dim>
				</port>
			</output>
		</layer>
		<layer id="148" name="ActionNet/twinnet/shared/bottleneck2_2/LeakyRelu28353" type="PReLU" version="opset1">
			<input>
				<port id="0">
					<dim>1</dim>
					<dim>64</dim>
					<dim>100</dim>
					<dim>170</dim>
				</port>
				<port id="1">
					<dim>1</dim>
				</port>
			</input>
			<output>
				<port id="2" precision="FP32">
					<dim>1</dim>
					<dim>64</dim>
					<dim>100</dim>
					<dim>170</dim>
				</port>
			</output>
		</layer>
		<layer id="149" name="ActionNet/twinnet/shared/bottleneck2_3/dim_red/weights/read/Output_0/Data__const" type="Const" version="opset1">
			<data element_type="f32" offset="47580" shape="16,64,1,1" size="4096"/>
			<output>
				<port id="1" precision="FP32">
					<dim>16</dim>
					<dim>64</dim>
					<dim>1</dim>
					<dim>1</dim>
				</port>
			</output>
		</layer>
		<layer id="150" name="ActionNet/twinnet/shared/bottleneck2_3/dim_red/Conv2D" type="Convolution" version="opset1">
			<data auto_pad="same_upper" dilations="1,1" output_padding="0,0" pads_begin="0,0" pads_end="0,0" strides="1,1"/>
			<input>
				<port id="0">
					<dim>1</dim>
					<dim>64</dim>
					<dim>100</dim>
					<dim>170</dim>
				</port>
				<port id="1">
					<dim>16</dim>
					<dim>64</dim>
					<dim>1</dim>
					<dim>1</dim>
				</port>
			</input>
			<output>
				<port id="2" precision="FP32">
					<dim>1</dim>
					<dim>16</dim>
					<dim>100</dim>
					<dim>170</dim>
				</port>
			</output>
		</layer>
		<layer id="151" name="ActionNet/twinnet/shared/bottleneck2_3/dim_red/biases/read/Output_0/Data_/copy_const" type="Const" version="opset1">
			<data element_type="f32" offset="51676" shape="1,16,1,1" size="64"/>
			<output>
				<port id="1" precision="FP32">
					<dim>1</dim>
					<dim>16</dim>
					<dim>1</dim>
					<dim>1</dim>
				</port>
			</output>
		</layer>
		<layer id="152" name="ActionNet/twinnet/shared/bottleneck2_3/dim_red/BiasAdd/Add" type="Add" version="opset1">
			<input>
				<port id="0">
					<dim>1</dim>
					<dim>16</dim>
					<dim>100</dim>
					<dim>170</dim>
				</port>
				<port id="1">
					<dim>1</dim>
					<dim>16</dim>
					<dim>1</dim>
					<dim>1</dim>
				</port>
			</input>
			<output>
				<port id="2" precision="FP32">
					<dim>1</dim>
					<dim>16</dim>
					<dim>100</dim>
					<dim>170</dim>
				</port>
			</output>
		</layer>
		<layer id="153" name="ActionNet/twinnet/shared/bottleneck2_3/dim_red/ActionNet/twinnet/shared/bottleneck2_3/dim_red_fn_activation28273/Cast_139200_const" type="Const" version="opset1">
			<data element_type="f32" offset="3608" shape="1" size="4"/>
			<output>
				<port id="1" precision="FP32">
					<dim>1</dim>
				</port>
			</output>
		</layer>
		<layer id="154" name="ActionNet/twinnet/shared/bottleneck2_3/dim_red/ActionNet/twinnet/shared/bottleneck2_3/dim_red_fn_activation28273" type="PReLU" version="opset1">
			<input>
				<port id="0">
					<dim>1</dim>
					<dim>16</dim>
					<dim>100</dim>
					<dim>170</dim>
				</port>
				<port id="1">
					<dim>1</dim>
				</port>
			</input>
			<output>
				<port id="2" precision="FP32">
					<dim>1</dim>
					<dim>16</dim>
					<dim>100</dim>
					<dim>170</dim>
				</port>
			</output>
		</layer>
		<layer id="155" name="3723537238_const" type="Const" version="opset1">
			<data element_type="f32" offset="51740" shape="16,1,1,3,3" size="576"/>
			<output>
				<port id="1" precision="FP32">
					<dim>16</dim>
					<dim>1</dim>
					<dim>1</dim>
					<dim>3</dim>
					<dim>3</dim>
				</port>
			</output>
		</layer>
		<layer id="156" name="ActionNet/twinnet/shared/bottleneck2_3/inner_conv/depthwise" type="GroupConvolution" version="opset1">
			<data auto_pad="same_upper" dilations="1,1" output_padding="0,0" pads_begin="1,1" pads_end="1,1" strides="1,1"/>
			<input>
				<port id="0">
					<dim>1</dim>
					<dim>16</dim>
					<dim>100</dim>
					<dim>170</dim>
				</port>
				<port id="1">
					<dim>16</dim>
					<dim>1</dim>
					<dim>1</dim>
					<dim>3</dim>
					<dim>3</dim>
				</port>
			</input>
			<output>
				<port id="2" precision="FP32">
					<dim>1</dim>
					<dim>16</dim>
					<dim>100</dim>
					<dim>170</dim>
				</port>
			</output>
		</layer>
		<layer id="157" name="ActionNet/twinnet/shared/bottleneck2_3/inner_conv/biases/read/Output_0/Data_/copy_const" type="Const" version="opset1">
			<data element_type="f32" offset="52316" shape="1,16,1,1" size="64"/>
			<output>
				<port id="1" precision="FP32">
					<dim>1</dim>
					<dim>16</dim>
					<dim>1</dim>
					<dim>1</dim>
				</port>
			</output>
		</layer>
		<layer id="158" name="ActionNet/twinnet/shared/bottleneck2_3/inner_conv/BiasAdd/Add" type="Add" version="opset1">
			<input>
				<port id="0">
					<dim>1</dim>
					<dim>16</dim>
					<dim>100</dim>
					<dim>170</dim>
				</port>
				<port id="1">
					<dim>1</dim>
					<dim>16</dim>
					<dim>1</dim>
					<dim>1</dim>
				</port>
			</input>
			<output>
				<port id="2" precision="FP32">
					<dim>1</dim>
					<dim>16</dim>
					<dim>100</dim>
					<dim>170</dim>
				</port>
			</output>
		</layer>
		<layer id="159" name="ActionNet/twinnet/shared/bottleneck2_3/inner_conv/ActionNet/twinnet/shared/bottleneck2_3/inner_conv_fn_activation28945/Cast_139080_const" type="Const" version="opset1">
			<data element_type="f32" offset="3608" shape="1" size="4"/>
			<output>
				<port id="1" precision="FP32">
					<dim>1</dim>
				</port>
			</output>
		</layer>
		<layer id="160" name="ActionNet/twinnet/shared/bottleneck2_3/inner_conv/ActionNet/twinnet/shared/bottleneck2_3/inner_conv_fn_activation28945" type="PReLU" version="opset1">
			<input>
				<port id="0">
					<dim>1</dim>
					<dim>16</dim>
					<dim>100</dim>
					<dim>170</dim>
				</port>
				<port id="1">
					<dim>1</dim>
				</port>
			</input>
			<output>
				<port id="2" precision="FP32">
					<dim>1</dim>
					<dim>16</dim>
					<dim>100</dim>
					<dim>170</dim>
				</port>
			</output>
		</layer>
		<layer id="161" name="ActionNet/twinnet/shared/bottleneck2_3/dim_inc/weights/read/Output_0/Data__const" type="Const" version="opset1">
			<data element_type="f32" offset="52380" shape="64,16,1,1" size="4096"/>
			<output>
				<port id="1" precision="FP32">
					<dim>64</dim>
					<dim>16</dim>
					<dim>1</dim>
					<dim>1</dim>
				</port>
			</output>
		</layer>
		<layer id="162" name="ActionNet/twinnet/shared/bottleneck2_3/dim_inc/Conv2D" type="Convolution" version="opset1">
			<data auto_pad="same_upper" dilations="1,1" output_padding="0,0" pads_begin="0,0" pads_end="0,0" strides="1,1"/>
			<input>
				<port id="0">
					<dim>1</dim>
					<dim>16</dim>
					<dim>100</dim>
					<dim>170</dim>
				</port>
				<port id="1">
					<dim>64</dim>
					<dim>16</dim>
					<dim>1</dim>
					<dim>1</dim>
				</port>
			</input>
			<output>
				<port id="2" precision="FP32">
					<dim>1</dim>
					<dim>64</dim>
					<dim>100</dim>
					<dim>170</dim>
				</port>
			</output>
		</layer>
		<layer id="163" name="ActionNet/twinnet/shared/bottleneck2_3/dim_inc/biases/read/Output_0/Data_/copy_const" type="Const" version="opset1">
			<data element_type="f32" offset="56476" shape="1,64,1,1" size="256"/>
			<output>
				<port id="1" precision="FP32">
					<dim>1</dim>
					<dim>64</dim>
					<dim>1</dim>
					<dim>1</dim>
				</port>
			</output>
		</layer>
		<layer id="164" name="ActionNet/twinnet/shared/bottleneck2_3/dim_inc/BiasAdd/Add" type="Add" version="opset1">
			<input>
				<port id="0">
					<dim>1</dim>
					<dim>64</dim>
					<dim>100</dim>
					<dim>170</dim>
				</port>
				<port id="1">
					<dim>1</dim>
					<dim>64</dim>
					<dim>1</dim>
					<dim>1</dim>
				</port>
			</input>
			<output>
				<port id="2" precision="FP32">
					<dim>1</dim>
					<dim>64</dim>
					<dim>100</dim>
					<dim>170</dim>
				</port>
			</output>
		</layer>
		<layer id="165" name="ActionNet/twinnet/shared/bottleneck2_3/Add" type="Add" version="opset1">
			<input>
				<port id="0">
					<dim>1</dim>
					<dim>64</dim>
					<dim>100</dim>
					<dim>170</dim>
				</port>
				<port id="1">
					<dim>1</dim>
					<dim>64</dim>
					<dim>100</dim>
					<dim>170</dim>
				</port>
			</input>
			<output>
				<port id="2" precision="FP32">
					<dim>1</dim>
					<dim>64</dim>
					<dim>100</dim>
					<dim>170</dim>
				</port>
			</output>
		</layer>
		<layer id="166" name="ActionNet/twinnet/shared/bottleneck2_3/LeakyRelu28605/Cast_138966_const" type="Const" version="opset1">
			<data element_type="f32" offset="3608" shape="1" size="4"/>
			<output>
				<port id="1" precision="FP32">
					<dim>1</dim>
				</port>
			</output>
		</layer>
		<layer id="167" name="ActionNet/twinnet/shared/bottleneck2_3/LeakyRelu28605" type="PReLU" version="opset1">
			<input>
				<port id="0">
					<dim>1</dim>
					<dim>64</dim>
					<dim>100</dim>
					<dim>170</dim>
				</port>
				<port id="1">
					<dim>1</dim>
				</port>
			</input>
			<output>
				<port id="2" precision="FP32">
					<dim>1</dim>
					<dim>64</dim>
					<dim>100</dim>
					<dim>170</dim>
				</port>
			</output>
		</layer>
		<layer id="168" name="ActionNet/twinnet/shared/bottleneck2_4/dim_red/weights/read/Output_0/Data__const" type="Const" version="opset1">
			<data element_type="f32" offset="56732" shape="16,64,1,1" size="4096"/>
			<output>
				<port id="1" precision="FP32">
					<dim>16</dim>
					<dim>64</dim>
					<dim>1</dim>
					<dim>1</dim>
				</port>
			</output>
		</layer>
		<layer id="169" name="ActionNet/twinnet/shared/bottleneck2_4/dim_red/Conv2D" type="Convolution" version="opset1">
			<data auto_pad="same_upper" dilations="1,1" output_padding="0,0" pads_begin="0,0" pads_end="0,0" strides="1,1"/>
			<input>
				<port id="0">
					<dim>1</dim>
					<dim>64</dim>
					<dim>100</dim>
					<dim>170</dim>
				</port>
				<port id="1">
					<dim>16</dim>
					<dim>64</dim>
					<dim>1</dim>
					<dim>1</dim>
				</port>
			</input>
			<output>
				<port id="2" precision="FP32">
					<dim>1</dim>
					<dim>16</dim>
					<dim>100</dim>
					<dim>170</dim>
				</port>
			</output>
		</layer>
		<layer id="170" name="ActionNet/twinnet/shared/bottleneck2_4/dim_red/biases/read/Output_0/Data_/copy_const" type="Const" version="opset1">
			<data element_type="f32" offset="60828" shape="1,16,1,1" size="64"/>
			<output>
				<port id="1" precision="FP32">
					<dim>1</dim>
					<dim>16</dim>
					<dim>1</dim>
					<dim>1</dim>
				</port>
			</output>
		</layer>
		<layer id="171" name="ActionNet/twinnet/shared/bottleneck2_4/dim_red/BiasAdd/Add" type="Add" version="opset1">
			<input>
				<port id="0">
					<dim>1</dim>
					<dim>16</dim>
					<dim>100</dim>
					<dim>170</dim>
				</port>
				<port id="1">
					<dim>1</dim>
					<dim>16</dim>
					<dim>1</dim>
					<dim>1</dim>
				</port>
			</input>
			<output>
				<port id="2" precision="FP32">
					<dim>1</dim>
					<dim>16</dim>
					<dim>100</dim>
					<dim>170</dim>
				</port>
			</output>
		</layer>
		<layer id="172" name="ActionNet/twinnet/shared/bottleneck2_4/dim_red/ActionNet/twinnet/shared/bottleneck2_4/dim_red_fn_activation28937/Cast_139170_const" type="Const" version="opset1">
			<data element_type="f32" offset="3608" shape="1" size="4"/>
			<output>
				<port id="1" precision="FP32">
					<dim>1</dim>
				</port>
			</output>
		</layer>
		<layer id="173" name="ActionNet/twinnet/shared/bottleneck2_4/dim_red/ActionNet/twinnet/shared/bottleneck2_4/dim_red_fn_activation28937" type="PReLU" version="opset1">
			<input>
				<port id="0">
					<dim>1</dim>
					<dim>16</dim>
					<dim>100</dim>
					<dim>170</dim>
				</port>
				<port id="1">
					<dim>1</dim>
				</port>
			</input>
			<output>
				<port id="2" precision="FP32">
					<dim>1</dim>
					<dim>16</dim>
					<dim>100</dim>
					<dim>170</dim>
				</port>
			</output>
		</layer>
		<layer id="174" name="3717537178_const" type="Const" version="opset1">
			<data element_type="f32" offset="60892" shape="16,1,1,3,3" size="576"/>
			<output>
				<port id="1" precision="FP32">
					<dim>16</dim>
					<dim>1</dim>
					<dim>1</dim>
					<dim>3</dim>
					<dim>3</dim>
				</port>
			</output>
		</layer>
		<layer id="175" name="ActionNet/twinnet/shared/bottleneck2_4/inner_conv/depthwise" type="GroupConvolution" version="opset1">
			<data auto_pad="same_upper" dilations="1,1" output_padding="0,0" pads_begin="1,1" pads_end="1,1" strides="1,1"/>
			<input>
				<port id="0">
					<dim>1</dim>
					<dim>16</dim>
					<dim>100</dim>
					<dim>170</dim>
				</port>
				<port id="1">
					<dim>16</dim>
					<dim>1</dim>
					<dim>1</dim>
					<dim>3</dim>
					<dim>3</dim>
				</port>
			</input>
			<output>
				<port id="2" precision="FP32">
					<dim>1</dim>
					<dim>16</dim>
					<dim>100</dim>
					<dim>170</dim>
				</port>
			</output>
		</layer>
		<layer id="176" name="ActionNet/twinnet/shared/bottleneck2_4/inner_conv/biases/read/Output_0/Data_/copy_const" type="Const" version="opset1">
			<data element_type="f32" offset="61468" shape="1,16,1,1" size="64"/>
			<output>
				<port id="1" precision="FP32">
					<dim>1</dim>
					<dim>16</dim>
					<dim>1</dim>
					<dim>1</dim>
				</port>
			</output>
		</layer>
		<layer id="177" name="ActionNet/twinnet/shared/bottleneck2_4/inner_conv/BiasAdd/Add" type="Add" version="opset1">
			<input>
				<port id="0">
					<dim>1</dim>
					<dim>16</dim>
					<dim>100</dim>
					<dim>170</dim>
				</port>
				<port id="1">
					<dim>1</dim>
					<dim>16</dim>
					<dim>1</dim>
					<dim>1</dim>
				</port>
			</input>
			<output>
				<port id="2" precision="FP32">
					<dim>1</dim>
					<dim>16</dim>
					<dim>100</dim>
					<dim>170</dim>
				</port>
			</output>
		</layer>
		<layer id="178" name="ActionNet/twinnet/shared/bottleneck2_4/inner_conv/ActionNet/twinnet/shared/bottleneck2_4/inner_conv_fn_activation28845/Cast_139108_const" type="Const" version="opset1">
			<data element_type="f32" offset="3608" shape="1" size="4"/>
			<output>
				<port id="1" precision="FP32">
					<dim>1</dim>
				</port>
			</output>
		</layer>
		<layer id="179" name="ActionNet/twinnet/shared/bottleneck2_4/inner_conv/ActionNet/twinnet/shared/bottleneck2_4/inner_conv_fn_activation28845" type="PReLU" version="opset1">
			<input>
				<port id="0">
					<dim>1</dim>
					<dim>16</dim>
					<dim>100</dim>
					<dim>170</dim>
				</port>
				<port id="1">
					<dim>1</dim>
				</port>
			</input>
			<output>
				<port id="2" precision="FP32">
					<dim>1</dim>
					<dim>16</dim>
					<dim>100</dim>
					<dim>170</dim>
				</port>
			</output>
		</layer>
		<layer id="180" name="ActionNet/twinnet/shared/bottleneck2_4/dim_inc/weights/read/Output_0/Data__const" type="Const" version="opset1">
			<data element_type="f32" offset="61532" shape="64,16,1,1" size="4096"/>
			<output>
				<port id="1" precision="FP32">
					<dim>64</dim>
					<dim>16</dim>
					<dim>1</dim>
					<dim>1</dim>
				</port>
			</output>
		</layer>
		<layer id="181" name="ActionNet/twinnet/shared/bottleneck2_4/dim_inc/Conv2D" type="Convolution" version="opset1">
			<data auto_pad="same_upper" dilations="1,1" output_padding="0,0" pads_begin="0,0" pads_end="0,0" strides="1,1"/>
			<input>
				<port id="0">
					<dim>1</dim>
					<dim>16</dim>
					<dim>100</dim>
					<dim>170</dim>
				</port>
				<port id="1">
					<dim>64</dim>
					<dim>16</dim>
					<dim>1</dim>
					<dim>1</dim>
				</port>
			</input>
			<output>
				<port id="2" precision="FP32">
					<dim>1</dim>
					<dim>64</dim>
					<dim>100</dim>
					<dim>170</dim>
				</port>
			</output>
		</layer>
		<layer id="182" name="ActionNet/twinnet/shared/bottleneck2_4/dim_inc/biases/read/Output_0/Data_/copy_const" type="Const" version="opset1">
			<data element_type="f32" offset="65628" shape="1,64,1,1" size="256"/>
			<output>
				<port id="1" precision="FP32">
					<dim>1</dim>
					<dim>64</dim>
					<dim>1</dim>
					<dim>1</dim>
				</port>
			</output>
		</layer>
		<layer id="183" name="ActionNet/twinnet/shared/bottleneck2_4/dim_inc/BiasAdd/Add" type="Add" version="opset1">
			<input>
				<port id="0">
					<dim>1</dim>
					<dim>64</dim>
					<dim>100</dim>
					<dim>170</dim>
				</port>
				<port id="1">
					<dim>1</dim>
					<dim>64</dim>
					<dim>1</dim>
					<dim>1</dim>
				</port>
			</input>
			<output>
				<port id="2" precision="FP32">
					<dim>1</dim>
					<dim>64</dim>
					<dim>100</dim>
					<dim>170</dim>
				</port>
			</output>
		</layer>
		<layer id="184" name="ActionNet/twinnet/shared/bottleneck2_4/Add" type="Add" version="opset1">
			<input>
				<port id="0">
					<dim>1</dim>
					<dim>64</dim>
					<dim>100</dim>
					<dim>170</dim>
				</port>
				<port id="1">
					<dim>1</dim>
					<dim>64</dim>
					<dim>100</dim>
					<dim>170</dim>
				</port>
			</input>
			<output>
				<port id="2" precision="FP32">
					<dim>1</dim>
					<dim>64</dim>
					<dim>100</dim>
					<dim>170</dim>
				</port>
			</output>
		</layer>
		<layer id="185" name="ActionNet/twinnet/shared/bottleneck2_4/LeakyRelu28341/Cast_138802_const" type="Const" version="opset1">
			<data element_type="f32" offset="3608" shape="1" size="4"/>
			<output>
				<port id="1" precision="FP32">
					<dim>1</dim>
				</port>
			</output>
		</layer>
		<layer id="186" name="ActionNet/twinnet/shared/bottleneck2_4/LeakyRelu28341" type="PReLU" version="opset1">
			<input>
				<port id="0">
					<dim>1</dim>
					<dim>64</dim>
					<dim>100</dim>
					<dim>170</dim>
				</port>
				<port id="1">
					<dim>1</dim>
				</port>
			</input>
			<output>
				<port id="2" precision="FP32">
					<dim>1</dim>
					<dim>64</dim>
					<dim>100</dim>
					<dim>170</dim>
				</port>
			</output>
		</layer>
		<layer id="187" name="ActionNet/twinnet/shared/bottleneck2_5/dim_red/weights/read/Output_0/Data__const" type="Const" version="opset1">
			<data element_type="f32" offset="65884" shape="16,64,1,1" size="4096"/>
			<output>
				<port id="1" precision="FP32">
					<dim>16</dim>
					<dim>64</dim>
					<dim>1</dim>
					<dim>1</dim>
				</port>
			</output>
		</layer>
		<layer id="188" name="ActionNet/twinnet/shared/bottleneck2_5/dim_red/Conv2D" type="Convolution" version="opset1">
			<data auto_pad="same_upper" dilations="1,1" output_padding="0,0" pads_begin="0,0" pads_end="0,0" strides="1,1"/>
			<input>
				<port id="0">
					<dim>1</dim>
					<dim>64</dim>
					<dim>100</dim>
					<dim>170</dim>
				</port>
				<port id="1">
					<dim>16</dim>
					<dim>64</dim>
					<dim>1</dim>
					<dim>1</dim>
				</port>
			</input>
			<output>
				<port id="2" precision="FP32">
					<dim>1</dim>
					<dim>16</dim>
					<dim>100</dim>
					<dim>170</dim>
				</port>
			</output>
		</layer>
		<layer id="189" name="ActionNet/twinnet/shared/bottleneck2_5/dim_red/biases/read/Output_0/Data_/copy_const" type="Const" version="opset1">
			<data element_type="f32" offset="69980" shape="1,16,1,1" size="64"/>
			<output>
				<port id="1" precision="FP32">
					<dim>1</dim>
					<dim>16</dim>
					<dim>1</dim>
					<dim>1</dim>
				</port>
			</output>
		</layer>
		<layer id="190" name="ActionNet/twinnet/shared/bottleneck2_5/dim_red/BiasAdd/Add" type="Add" version="opset1">
			<input>
				<port id="0">
					<dim>1</dim>
					<dim>16</dim>
					<dim>100</dim>
					<dim>170</dim>
				</port>
				<port id="1">
					<dim>1</dim>
					<dim>16</dim>
					<dim>1</dim>
					<dim>1</dim>
				</port>
			</input>
			<output>
				<port id="2" precision="FP32">
					<dim>1</dim>
					<dim>16</dim>
					<dim>100</dim>
					<dim>170</dim>
				</port>
			</output>
		</layer>
		<layer id="191" name="ActionNet/twinnet/shared/bottleneck2_5/dim_red/ActionNet/twinnet/shared/bottleneck2_5/dim_red_fn_activation28517/Cast_138988_const" type="Const" version="opset1">
			<data element_type="f32" offset="3608" shape="1" size="4"/>
			<output>
				<port id="1" precision="FP32">
					<dim>1</dim>
				</port>
			</output>
		</layer>
		<layer id="192" name="ActionNet/twinnet/shared/bottleneck2_5/dim_red/ActionNet/twinnet/shared/bottleneck2_5/dim_red_fn_activation28517" type="PReLU" version="opset1">
			<input>
				<port id="0">
					<dim>1</dim>
					<dim>16</dim>
					<dim>100</dim>
					<dim>170</dim>
				</port>
				<port id="1">
					<dim>1</dim>
				</port>
			</input>
			<output>
				<port id="2" precision="FP32">
					<dim>1</dim>
					<dim>16</dim>
					<dim>100</dim>
					<dim>170</dim>
				</port>
			</output>
		</layer>
		<layer id="193" name="3725537258_const" type="Const" version="opset1">
			<data element_type="f32" offset="70044" shape="16,1,1,3,3" size="576"/>
			<output>
				<port id="1" precision="FP32">
					<dim>16</dim>
					<dim>1</dim>
					<dim>1</dim>
					<dim>3</dim>
					<dim>3</dim>
				</port>
			</output>
		</layer>
		<layer id="194" name="ActionNet/twinnet/shared/bottleneck2_5/inner_conv/depthwise" type="GroupConvolution" version="opset1">
			<data auto_pad="same_upper" dilations="1,1" output_padding="0,0" pads_begin="1,1" pads_end="1,1" strides="1,1"/>
			<input>
				<port id="0">
					<dim>1</dim>
					<dim>16</dim>
					<dim>100</dim>
					<dim>170</dim>
				</port>
				<port id="1">
					<dim>16</dim>
					<dim>1</dim>
					<dim>1</dim>
					<dim>3</dim>
					<dim>3</dim>
				</port>
			</input>
			<output>
				<port id="2" precision="FP32">
					<dim>1</dim>
					<dim>16</dim>
					<dim>100</dim>
					<dim>170</dim>
				</port>
			</output>
		</layer>
		<layer id="195" name="ActionNet/twinnet/shared/bottleneck2_5/inner_conv/biases/read/Output_0/Data_/copy_const" type="Const" version="opset1">
			<data element_type="f32" offset="70620" shape="1,16,1,1" size="64"/>
			<output>
				<port id="1" precision="FP32">
					<dim>1</dim>
					<dim>16</dim>
					<dim>1</dim>
					<dim>1</dim>
				</port>
			</output>
		</layer>
		<layer id="196" name="ActionNet/twinnet/shared/bottleneck2_5/inner_conv/BiasAdd/Add" type="Add" version="opset1">
			<input>
				<port id="0">
					<dim>1</dim>
					<dim>16</dim>
					<dim>100</dim>
					<dim>170</dim>
				</port>
				<port id="1">
					<dim>1</dim>
					<dim>16</dim>
					<dim>1</dim>
					<dim>1</dim>
				</port>
			</input>
			<output>
				<port id="2" precision="FP32">
					<dim>1</dim>
					<dim>16</dim>
					<dim>100</dim>
					<dim>170</dim>
				</port>
			</output>
		</layer>
		<layer id="197" name="ActionNet/twinnet/shared/bottleneck2_5/inner_conv/ActionNet/twinnet/shared/bottleneck2_5/inner_conv_fn_activation28385/Cast_138942_const" type="Const" version="opset1">
			<data element_type="f32" offset="3608" shape="1" size="4"/>
			<output>
				<port id="1" precision="FP32">
					<dim>1</dim>
				</port>
			</output>
		</layer>
		<layer id="198" name="ActionNet/twinnet/shared/bottleneck2_5/inner_conv/ActionNet/twinnet/shared/bottleneck2_5/inner_conv_fn_activation28385" type="PReLU" version="opset1">
			<input>
				<port id="0">
					<dim>1</dim>
					<dim>16</dim>
					<dim>100</dim>
					<dim>170</dim>
				</port>
				<port id="1">
					<dim>1</dim>
				</port>
			</input>
			<output>
				<port id="2" precision="FP32">
					<dim>1</dim>
					<dim>16</dim>
					<dim>100</dim>
					<dim>170</dim>
				</port>
			</output>
		</layer>
		<layer id="199" name="ActionNet/twinnet/shared/bottleneck2_5/dim_inc/weights/read/Output_0/Data__const" type="Const" version="opset1">
			<data element_type="f32" offset="70684" shape="64,16,1,1" size="4096"/>
			<output>
				<port id="1" precision="FP32">
					<dim>64</dim>
					<dim>16</dim>
					<dim>1</dim>
					<dim>1</dim>
				</port>
			</output>
		</layer>
		<layer id="200" name="ActionNet/twinnet/shared/bottleneck2_5/dim_inc/Conv2D" type="Convolution" version="opset1">
			<data auto_pad="same_upper" dilations="1,1" output_padding="0,0" pads_begin="0,0" pads_end="0,0" strides="1,1"/>
			<input>
				<port id="0">
					<dim>1</dim>
					<dim>16</dim>
					<dim>100</dim>
					<dim>170</dim>
				</port>
				<port id="1">
					<dim>64</dim>
					<dim>16</dim>
					<dim>1</dim>
					<dim>1</dim>
				</port>
			</input>
			<output>
				<port id="2" precision="FP32">
					<dim>1</dim>
					<dim>64</dim>
					<dim>100</dim>
					<dim>170</dim>
				</port>
			</output>
		</layer>
		<layer id="201" name="ActionNet/twinnet/shared/bottleneck2_5/dim_inc/biases/read/Output_0/Data_/copy_const" type="Const" version="opset1">
			<data element_type="f32" offset="74780" shape="1,64,1,1" size="256"/>
			<output>
				<port id="1" precision="FP32">
					<dim>1</dim>
					<dim>64</dim>
					<dim>1</dim>
					<dim>1</dim>
				</port>
			</output>
		</layer>
		<layer id="202" name="ActionNet/twinnet/shared/bottleneck2_5/dim_inc/BiasAdd/Add" type="Add" version="opset1">
			<input>
				<port id="0">
					<dim>1</dim>
					<dim>64</dim>
					<dim>100</dim>
					<dim>170</dim>
				</port>
				<port id="1">
					<dim>1</dim>
					<dim>64</dim>
					<dim>1</dim>
					<dim>1</dim>
				</port>
			</input>
			<output>
				<port id="2" precision="FP32">
					<dim>1</dim>
					<dim>64</dim>
					<dim>100</dim>
					<dim>170</dim>
				</port>
			</output>
		</layer>
		<layer id="203" name="ActionNet/twinnet/shared/bottleneck2_5/Add" type="Add" version="opset1">
			<input>
				<port id="0">
					<dim>1</dim>
					<dim>64</dim>
					<dim>100</dim>
					<dim>170</dim>
				</port>
				<port id="1">
					<dim>1</dim>
					<dim>64</dim>
					<dim>100</dim>
					<dim>170</dim>
				</port>
			</input>
			<output>
				<port id="2" precision="FP32">
					<dim>1</dim>
					<dim>64</dim>
					<dim>100</dim>
					<dim>170</dim>
				</port>
			</output>
		</layer>
		<layer id="204" name="ActionNet/twinnet/shared/bottleneck2_5/LeakyRelu28365/Cast_139166_const" type="Const" version="opset1">
			<data element_type="f32" offset="3608" shape="1" size="4"/>
			<output>
				<port id="1" precision="FP32">
					<dim>1</dim>
				</port>
			</output>
		</layer>
		<layer id="205" name="ActionNet/twinnet/shared/bottleneck2_5/LeakyRelu28365" type="PReLU" version="opset1">
			<input>
				<port id="0">
					<dim>1</dim>
					<dim>64</dim>
					<dim>100</dim>
					<dim>170</dim>
				</port>
				<port id="1">
					<dim>1</dim>
				</port>
			</input>
			<output>
				<port id="2" precision="FP32">
					<dim>1</dim>
					<dim>64</dim>
					<dim>100</dim>
					<dim>170</dim>
				</port>
			</output>
		</layer>
		<layer id="206" name="ActionNet/twinnet/shared/bottleneck2_6/dim_red/weights/read/Output_0/Data__const" type="Const" version="opset1">
			<data element_type="f32" offset="75036" shape="16,64,1,1" size="4096"/>
			<output>
				<port id="1" precision="FP32">
					<dim>16</dim>
					<dim>64</dim>
					<dim>1</dim>
					<dim>1</dim>
				</port>
			</output>
		</layer>
		<layer id="207" name="ActionNet/twinnet/shared/bottleneck2_6/dim_red/Conv2D" type="Convolution" version="opset1">
			<data auto_pad="same_upper" dilations="1,1" output_padding="0,0" pads_begin="0,0" pads_end="0,0" strides="1,1"/>
			<input>
				<port id="0">
					<dim>1</dim>
					<dim>64</dim>
					<dim>100</dim>
					<dim>170</dim>
				</port>
				<port id="1">
					<dim>16</dim>
					<dim>64</dim>
					<dim>1</dim>
					<dim>1</dim>
				</port>
			</input>
			<output>
				<port id="2" precision="FP32">
					<dim>1</dim>
					<dim>16</dim>
					<dim>100</dim>
					<dim>170</dim>
				</port>
			</output>
		</layer>
		<layer id="208" name="ActionNet/twinnet/shared/bottleneck2_6/dim_red/biases/read/Output_0/Data_/copy_const" type="Const" version="opset1">
			<data element_type="f32" offset="79132" shape="1,16,1,1" size="64"/>
			<output>
				<port id="1" precision="FP32">
					<dim>1</dim>
					<dim>16</dim>
					<dim>1</dim>
					<dim>1</dim>
				</port>
			</output>
		</layer>
		<layer id="209" name="ActionNet/twinnet/shared/bottleneck2_6/dim_red/BiasAdd/Add" type="Add" version="opset1">
			<input>
				<port id="0">
					<dim>1</dim>
					<dim>16</dim>
					<dim>100</dim>
					<dim>170</dim>
				</port>
				<port id="1">
					<dim>1</dim>
					<dim>16</dim>
					<dim>1</dim>
					<dim>1</dim>
				</port>
			</input>
			<output>
				<port id="2" precision="FP32">
					<dim>1</dim>
					<dim>16</dim>
					<dim>100</dim>
					<dim>170</dim>
				</port>
			</output>
		</layer>
		<layer id="210" name="ActionNet/twinnet/shared/bottleneck2_6/dim_red/ActionNet/twinnet/shared/bottleneck2_6/dim_red_fn_activation28457/Cast_139090_const" type="Const" version="opset1">
			<data element_type="f32" offset="3608" shape="1" size="4"/>
			<output>
				<port id="1" precision="FP32">
					<dim>1</dim>
				</port>
			</output>
		</layer>
		<layer id="211" name="ActionNet/twinnet/shared/bottleneck2_6/dim_red/ActionNet/twinnet/shared/bottleneck2_6/dim_red_fn_activation28457" type="PReLU" version="opset1">
			<input>
				<port id="0">
					<dim>1</dim>
					<dim>16</dim>
					<dim>100</dim>
					<dim>170</dim>
				</port>
				<port id="1">
					<dim>1</dim>
				</port>
			</input>
			<output>
				<port id="2" precision="FP32">
					<dim>1</dim>
					<dim>16</dim>
					<dim>100</dim>
					<dim>170</dim>
				</port>
			</output>
		</layer>
		<layer id="212" name="3726737270_const" type="Const" version="opset1">
			<data element_type="f32" offset="79196" shape="16,1,1,3,3" size="576"/>
			<output>
				<port id="1" precision="FP32">
					<dim>16</dim>
					<dim>1</dim>
					<dim>1</dim>
					<dim>3</dim>
					<dim>3</dim>
				</port>
			</output>
		</layer>
		<layer id="213" name="ActionNet/twinnet/shared/bottleneck2_6/inner_conv/depthwise" type="GroupConvolution" version="opset1">
			<data auto_pad="same_upper" dilations="1,1" output_padding="0,0" pads_begin="1,1" pads_end="1,1" strides="1,1"/>
			<input>
				<port id="0">
					<dim>1</dim>
					<dim>16</dim>
					<dim>100</dim>
					<dim>170</dim>
				</port>
				<port id="1">
					<dim>16</dim>
					<dim>1</dim>
					<dim>1</dim>
					<dim>3</dim>
					<dim>3</dim>
				</port>
			</input>
			<output>
				<port id="2" precision="FP32">
					<dim>1</dim>
					<dim>16</dim>
					<dim>100</dim>
					<dim>170</dim>
				</port>
			</output>
		</layer>
		<layer id="214" name="ActionNet/twinnet/shared/bottleneck2_6/inner_conv/biases/read/Output_0/Data_/copy_const" type="Const" version="opset1">
			<data element_type="f32" offset="79772" shape="1,16,1,1" size="64"/>
			<output>
				<port id="1" precision="FP32">
					<dim>1</dim>
					<dim>16</dim>
					<dim>1</dim>
					<dim>1</dim>
				</port>
			</output>
		</layer>
		<layer id="215" name="ActionNet/twinnet/shared/bottleneck2_6/inner_conv/BiasAdd/Add" type="Add" version="opset1">
			<input>
				<port id="0">
					<dim>1</dim>
					<dim>16</dim>
					<dim>100</dim>
					<dim>170</dim>
				</port>
				<port id="1">
					<dim>1</dim>
					<dim>16</dim>
					<dim>1</dim>
					<dim>1</dim>
				</port>
			</input>
			<output>
				<port id="2" precision="FP32">
					<dim>1</dim>
					<dim>16</dim>
					<dim>100</dim>
					<dim>170</dim>
				</port>
			</output>
		</layer>
		<layer id="216" name="ActionNet/twinnet/shared/bottleneck2_6/inner_conv/ActionNet/twinnet/shared/bottleneck2_6/inner_conv_fn_activation28277/Cast_139164_const" type="Const" version="opset1">
			<data element_type="f32" offset="3608" shape="1" size="4"/>
			<output>
				<port id="1" precision="FP32">
					<dim>1</dim>
				</port>
			</output>
		</layer>
		<layer id="217" name="ActionNet/twinnet/shared/bottleneck2_6/inner_conv/ActionNet/twinnet/shared/bottleneck2_6/inner_conv_fn_activation28277" type="PReLU" version="opset1">
			<input>
				<port id="0">
					<dim>1</dim>
					<dim>16</dim>
					<dim>100</dim>
					<dim>170</dim>
				</port>
				<port id="1">
					<dim>1</dim>
				</port>
			</input>
			<output>
				<port id="2" precision="FP32">
					<dim>1</dim>
					<dim>16</dim>
					<dim>100</dim>
					<dim>170</dim>
				</port>
			</output>
		</layer>
		<layer id="218" name="ActionNet/twinnet/shared/bottleneck2_6/dim_inc/weights/read/Output_0/Data__const" type="Const" version="opset1">
			<data element_type="f32" offset="79836" shape="64,16,1,1" size="4096"/>
			<output>
				<port id="1" precision="FP32">
					<dim>64</dim>
					<dim>16</dim>
					<dim>1</dim>
					<dim>1</dim>
				</port>
			</output>
		</layer>
		<layer id="219" name="ActionNet/twinnet/shared/bottleneck2_6/dim_inc/Conv2D" type="Convolution" version="opset1">
			<data auto_pad="same_upper" dilations="1,1" output_padding="0,0" pads_begin="0,0" pads_end="0,0" strides="1,1"/>
			<input>
				<port id="0">
					<dim>1</dim>
					<dim>16</dim>
					<dim>100</dim>
					<dim>170</dim>
				</port>
				<port id="1">
					<dim>64</dim>
					<dim>16</dim>
					<dim>1</dim>
					<dim>1</dim>
				</port>
			</input>
			<output>
				<port id="2" precision="FP32">
					<dim>1</dim>
					<dim>64</dim>
					<dim>100</dim>
					<dim>170</dim>
				</port>
			</output>
		</layer>
		<layer id="220" name="ActionNet/twinnet/shared/bottleneck2_6/dim_inc/biases/read/Output_0/Data_/copy_const" type="Const" version="opset1">
			<data element_type="f32" offset="83932" shape="1,64,1,1" size="256"/>
			<output>
				<port id="1" precision="FP32">
					<dim>1</dim>
					<dim>64</dim>
					<dim>1</dim>
					<dim>1</dim>
				</port>
			</output>
		</layer>
		<layer id="221" name="ActionNet/twinnet/shared/bottleneck2_6/dim_inc/BiasAdd/Add" type="Add" version="opset1">
			<input>
				<port id="0">
					<dim>1</dim>
					<dim>64</dim>
					<dim>100</dim>
					<dim>170</dim>
				</port>
				<port id="1">
					<dim>1</dim>
					<dim>64</dim>
					<dim>1</dim>
					<dim>1</dim>
				</port>
			</input>
			<output>
				<port id="2" precision="FP32">
					<dim>1</dim>
					<dim>64</dim>
					<dim>100</dim>
					<dim>170</dim>
				</port>
			</output>
		</layer>
		<layer id="222" name="ActionNet/twinnet/shared/bottleneck2_6/Add" type="Add" version="opset1">
			<input>
				<port id="0">
					<dim>1</dim>
					<dim>64</dim>
					<dim>100</dim>
					<dim>170</dim>
				</port>
				<port id="1">
					<dim>1</dim>
					<dim>64</dim>
					<dim>100</dim>
					<dim>170</dim>
				</port>
			</input>
			<output>
				<port id="2" precision="FP32">
					<dim>1</dim>
					<dim>64</dim>
					<dim>100</dim>
					<dim>170</dim>
				</port>
			</output>
		</layer>
		<layer id="223" name="ActionNet/twinnet/shared/bottleneck2_6/LeakyRelu28573/Cast_139116_const" type="Const" version="opset1">
			<data element_type="f32" offset="3608" shape="1" size="4"/>
			<output>
				<port id="1" precision="FP32">
					<dim>1</dim>
				</port>
			</output>
		</layer>
		<layer id="224" name="ActionNet/twinnet/shared/bottleneck2_6/LeakyRelu28573" type="PReLU" version="opset1">
			<input>
				<port id="0">
					<dim>1</dim>
					<dim>64</dim>
					<dim>100</dim>
					<dim>170</dim>
				</port>
				<port id="1">
					<dim>1</dim>
				</port>
			</input>
			<output>
				<port id="2" precision="FP32">
					<dim>1</dim>
					<dim>64</dim>
					<dim>100</dim>
					<dim>170</dim>
				</port>
			</output>
		</layer>
		<layer id="225" name="ActionNet/twinnet/shared/bottleneck2_7/dim_red/weights/read/Output_0/Data__const" type="Const" version="opset1">
			<data element_type="f32" offset="84188" shape="16,64,1,1" size="4096"/>
			<output>
				<port id="1" precision="FP32">
					<dim>16</dim>
					<dim>64</dim>
					<dim>1</dim>
					<dim>1</dim>
				</port>
			</output>
		</layer>
		<layer id="226" name="ActionNet/twinnet/shared/bottleneck2_7/dim_red/Conv2D" type="Convolution" version="opset1">
			<data auto_pad="same_upper" dilations="1,1" output_padding="0,0" pads_begin="0,0" pads_end="0,0" strides="1,1"/>
			<input>
				<port id="0">
					<dim>1</dim>
					<dim>64</dim>
					<dim>100</dim>
					<dim>170</dim>
				</port>
				<port id="1">
					<dim>16</dim>
					<dim>64</dim>
					<dim>1</dim>
					<dim>1</dim>
				</port>
			</input>
			<output>
				<port id="2" precision="FP32">
					<dim>1</dim>
					<dim>16</dim>
					<dim>100</dim>
					<dim>170</dim>
				</port>
			</output>
		</layer>
		<layer id="227" name="ActionNet/twinnet/shared/bottleneck2_7/dim_red/biases/read/Output_0/Data_/copy_const" type="Const" version="opset1">
			<data element_type="f32" offset="88284" shape="1,16,1,1" size="64"/>
			<output>
				<port id="1" precision="FP32">
					<dim>1</dim>
					<dim>16</dim>
					<dim>1</dim>
					<dim>1</dim>
				</port>
			</output>
		</layer>
		<layer id="228" name="ActionNet/twinnet/shared/bottleneck2_7/dim_red/BiasAdd/Add" type="Add" version="opset1">
			<input>
				<port id="0">
					<dim>1</dim>
					<dim>16</dim>
					<dim>100</dim>
					<dim>170</dim>
				</port>
				<port id="1">
					<dim>1</dim>
					<dim>16</dim>
					<dim>1</dim>
					<dim>1</dim>
				</port>
			</input>
			<output>
				<port id="2" precision="FP32">
					<dim>1</dim>
					<dim>16</dim>
					<dim>100</dim>
					<dim>170</dim>
				</port>
			</output>
		</layer>
		<layer id="229" name="ActionNet/twinnet/shared/bottleneck2_7/dim_red/ActionNet/twinnet/shared/bottleneck2_7/dim_red_fn_activation28665/Cast_138846_const" type="Const" version="opset1">
			<data element_type="f32" offset="3608" shape="1" size="4"/>
			<output>
				<port id="1" precision="FP32">
					<dim>1</dim>
				</port>
			</output>
		</layer>
		<layer id="230" name="ActionNet/twinnet/shared/bottleneck2_7/dim_red/ActionNet/twinnet/shared/bottleneck2_7/dim_red_fn_activation28665" type="PReLU" version="opset1">
			<input>
				<port id="0">
					<dim>1</dim>
					<dim>16</dim>
					<dim>100</dim>
					<dim>170</dim>
				</port>
				<port id="1">
					<dim>1</dim>
				</port>
			</input>
			<output>
				<port id="2" precision="FP32">
					<dim>1</dim>
					<dim>16</dim>
					<dim>100</dim>
					<dim>170</dim>
				</port>
			</output>
		</layer>
		<layer id="231" name="3741537418_const" type="Const" version="opset1">
			<data element_type="f32" offset="88348" shape="16,1,1,3,3" size="576"/>
			<output>
				<port id="1" precision="FP32">
					<dim>16</dim>
					<dim>1</dim>
					<dim>1</dim>
					<dim>3</dim>
					<dim>3</dim>
				</port>
			</output>
		</layer>
		<layer id="232" name="ActionNet/twinnet/shared/bottleneck2_7/inner_conv/depthwise" type="GroupConvolution" version="opset1">
			<data auto_pad="same_upper" dilations="1,1" output_padding="0,0" pads_begin="1,1" pads_end="1,1" strides="1,1"/>
			<input>
				<port id="0">
					<dim>1</dim>
					<dim>16</dim>
					<dim>100</dim>
					<dim>170</dim>
				</port>
				<port id="1">
					<dim>16</dim>
					<dim>1</dim>
					<dim>1</dim>
					<dim>3</dim>
					<dim>3</dim>
				</port>
			</input>
			<output>
				<port id="2" precision="FP32">
					<dim>1</dim>
					<dim>16</dim>
					<dim>100</dim>
					<dim>170</dim>
				</port>
			</output>
		</layer>
		<layer id="233" name="ActionNet/twinnet/shared/bottleneck2_7/inner_conv/biases/read/Output_0/Data_/copy_const" type="Const" version="opset1">
			<data element_type="f32" offset="88924" shape="1,16,1,1" size="64"/>
			<output>
				<port id="1" precision="FP32">
					<dim>1</dim>
					<dim>16</dim>
					<dim>1</dim>
					<dim>1</dim>
				</port>
			</output>
		</layer>
		<layer id="234" name="ActionNet/twinnet/shared/bottleneck2_7/inner_conv/BiasAdd/Add" type="Add" version="opset1">
			<input>
				<port id="0">
					<dim>1</dim>
					<dim>16</dim>
					<dim>100</dim>
					<dim>170</dim>
				</port>
				<port id="1">
					<dim>1</dim>
					<dim>16</dim>
					<dim>1</dim>
					<dim>1</dim>
				</port>
			</input>
			<output>
				<port id="2" precision="FP32">
					<dim>1</dim>
					<dim>16</dim>
					<dim>100</dim>
					<dim>170</dim>
				</port>
			</output>
		</layer>
		<layer id="235" name="ActionNet/twinnet/shared/bottleneck2_7/inner_conv/ActionNet/twinnet/shared/bottleneck2_7/inner_conv_fn_activation28189/Cast_139056_const" type="Const" version="opset1">
			<data element_type="f32" offset="3608" shape="1" size="4"/>
			<output>
				<port id="1" precision="FP32">
					<dim>1</dim>
				</port>
			</output>
		</layer>
		<layer id="236" name="ActionNet/twinnet/shared/bottleneck2_7/inner_conv/ActionNet/twinnet/shared/bottleneck2_7/inner_conv_fn_activation28189" type="PReLU" version="opset1">
			<input>
				<port id="0">
					<dim>1</dim>
					<dim>16</dim>
					<dim>100</dim>
					<dim>170</dim>
				</port>
				<port id="1">
					<dim>1</dim>
				</port>
			</input>
			<output>
				<port id="2" precision="FP32">
					<dim>1</dim>
					<dim>16</dim>
					<dim>100</dim>
					<dim>170</dim>
				</port>
			</output>
		</layer>
		<layer id="237" name="ActionNet/twinnet/shared/bottleneck2_7/dim_inc/weights/read/Output_0/Data__const" type="Const" version="opset1">
			<data element_type="f32" offset="88988" shape="64,16,1,1" size="4096"/>
			<output>
				<port id="1" precision="FP32">
					<dim>64</dim>
					<dim>16</dim>
					<dim>1</dim>
					<dim>1</dim>
				</port>
			</output>
		</layer>
		<layer id="238" name="ActionNet/twinnet/shared/bottleneck2_7/dim_inc/Conv2D" type="Convolution" version="opset1">
			<data auto_pad="same_upper" dilations="1,1" output_padding="0,0" pads_begin="0,0" pads_end="0,0" strides="1,1"/>
			<input>
				<port id="0">
					<dim>1</dim>
					<dim>16</dim>
					<dim>100</dim>
					<dim>170</dim>
				</port>
				<port id="1">
					<dim>64</dim>
					<dim>16</dim>
					<dim>1</dim>
					<dim>1</dim>
				</port>
			</input>
			<output>
				<port id="2" precision="FP32">
					<dim>1</dim>
					<dim>64</dim>
					<dim>100</dim>
					<dim>170</dim>
				</port>
			</output>
		</layer>
		<layer id="239" name="ActionNet/twinnet/shared/bottleneck2_7/dim_inc/biases/read/Output_0/Data_/copy_const" type="Const" version="opset1">
			<data element_type="f32" offset="93084" shape="1,64,1,1" size="256"/>
			<output>
				<port id="1" precision="FP32">
					<dim>1</dim>
					<dim>64</dim>
					<dim>1</dim>
					<dim>1</dim>
				</port>
			</output>
		</layer>
		<layer id="240" name="ActionNet/twinnet/shared/bottleneck2_7/dim_inc/BiasAdd/Add" type="Add" version="opset1">
			<input>
				<port id="0">
					<dim>1</dim>
					<dim>64</dim>
					<dim>100</dim>
					<dim>170</dim>
				</port>
				<port id="1">
					<dim>1</dim>
					<dim>64</dim>
					<dim>1</dim>
					<dim>1</dim>
				</port>
			</input>
			<output>
				<port id="2" precision="FP32">
					<dim>1</dim>
					<dim>64</dim>
					<dim>100</dim>
					<dim>170</dim>
				</port>
			</output>
		</layer>
		<layer id="241" name="ActionNet/twinnet/shared/bottleneck2_7/Add" type="Add" version="opset1">
			<input>
				<port id="0">
					<dim>1</dim>
					<dim>64</dim>
					<dim>100</dim>
					<dim>170</dim>
				</port>
				<port id="1">
					<dim>1</dim>
					<dim>64</dim>
					<dim>100</dim>
					<dim>170</dim>
				</port>
			</input>
			<output>
				<port id="2" precision="FP32">
					<dim>1</dim>
					<dim>64</dim>
					<dim>100</dim>
					<dim>170</dim>
				</port>
			</output>
		</layer>
		<layer id="242" name="ActionNet/twinnet/shared/bottleneck2_7/LeakyRelu28829/Cast_138862_const" type="Const" version="opset1">
			<data element_type="f32" offset="3608" shape="1" size="4"/>
			<output>
				<port id="1" precision="FP32">
					<dim>1</dim>
				</port>
			</output>
		</layer>
		<layer id="243" name="ActionNet/twinnet/shared/bottleneck2_7/LeakyRelu28829" type="PReLU" version="opset1">
			<input>
				<port id="0">
					<dim>1</dim>
					<dim>64</dim>
					<dim>100</dim>
					<dim>170</dim>
				</port>
				<port id="1">
					<dim>1</dim>
				</port>
			</input>
			<output>
				<port id="2" precision="FP32">
					<dim>1</dim>
					<dim>64</dim>
					<dim>100</dim>
					<dim>170</dim>
				</port>
			</output>
		</layer>
		<layer id="244" name="ActionNet/twinnet/shared/bottleneck2_8/dim_red/weights/read/Output_0/Data__const" type="Const" version="opset1">
			<data element_type="f32" offset="93340" shape="16,64,1,1" size="4096"/>
			<output>
				<port id="1" precision="FP32">
					<dim>16</dim>
					<dim>64</dim>
					<dim>1</dim>
					<dim>1</dim>
				</port>
			</output>
		</layer>
		<layer id="245" name="ActionNet/twinnet/shared/bottleneck2_8/dim_red/Conv2D" type="Convolution" version="opset1">
			<data auto_pad="same_upper" dilations="1,1" output_padding="0,0" pads_begin="0,0" pads_end="0,0" strides="1,1"/>
			<input>
				<port id="0">
					<dim>1</dim>
					<dim>64</dim>
					<dim>100</dim>
					<dim>170</dim>
				</port>
				<port id="1">
					<dim>16</dim>
					<dim>64</dim>
					<dim>1</dim>
					<dim>1</dim>
				</port>
			</input>
			<output>
				<port id="2" precision="FP32">
					<dim>1</dim>
					<dim>16</dim>
					<dim>100</dim>
					<dim>170</dim>
				</port>
			</output>
		</layer>
		<layer id="246" name="ActionNet/twinnet/shared/bottleneck2_8/dim_red/biases/read/Output_0/Data_/copy_const" type="Const" version="opset1">
			<data element_type="f32" offset="97436" shape="1,16,1,1" size="64"/>
			<output>
				<port id="1" precision="FP32">
					<dim>1</dim>
					<dim>16</dim>
					<dim>1</dim>
					<dim>1</dim>
				</port>
			</output>
		</layer>
		<layer id="247" name="ActionNet/twinnet/shared/bottleneck2_8/dim_red/BiasAdd/Add" type="Add" version="opset1">
			<input>
				<port id="0">
					<dim>1</dim>
					<dim>16</dim>
					<dim>100</dim>
					<dim>170</dim>
				</port>
				<port id="1">
					<dim>1</dim>
					<dim>16</dim>
					<dim>1</dim>
					<dim>1</dim>
				</port>
			</input>
			<output>
				<port id="2" precision="FP32">
					<dim>1</dim>
					<dim>16</dim>
					<dim>100</dim>
					<dim>170</dim>
				</port>
			</output>
		</layer>
		<layer id="248" name="ActionNet/twinnet/shared/bottleneck2_8/dim_red/ActionNet/twinnet/shared/bottleneck2_8/dim_red_fn_activation28429/Cast_139034_const" type="Const" version="opset1">
			<data element_type="f32" offset="3608" shape="1" size="4"/>
			<output>
				<port id="1" precision="FP32">
					<dim>1</dim>
				</port>
			</output>
		</layer>
		<layer id="249" name="ActionNet/twinnet/shared/bottleneck2_8/dim_red/ActionNet/twinnet/shared/bottleneck2_8/dim_red_fn_activation28429" type="PReLU" version="opset1">
			<input>
				<port id="0">
					<dim>1</dim>
					<dim>16</dim>
					<dim>100</dim>
					<dim>170</dim>
				</port>
				<port id="1">
					<dim>1</dim>
				</port>
			</input>
			<output>
				<port id="2" precision="FP32">
					<dim>1</dim>
					<dim>16</dim>
					<dim>100</dim>
					<dim>170</dim>
				</port>
			</output>
		</layer>
		<layer id="250" name="3720337206_const" type="Const" version="opset1">
			<data element_type="f32" offset="97500" shape="16,1,1,3,3" size="576"/>
			<output>
				<port id="1" precision="FP32">
					<dim>16</dim>
					<dim>1</dim>
					<dim>1</dim>
					<dim>3</dim>
					<dim>3</dim>
				</port>
			</output>
		</layer>
		<layer id="251" name="ActionNet/twinnet/shared/bottleneck2_8/inner_conv/depthwise" type="GroupConvolution" version="opset1">
			<data auto_pad="same_upper" dilations="1,1" output_padding="0,0" pads_begin="1,1" pads_end="1,1" strides="1,1"/>
			<input>
				<port id="0">
					<dim>1</dim>
					<dim>16</dim>
					<dim>100</dim>
					<dim>170</dim>
				</port>
				<port id="1">
					<dim>16</dim>
					<dim>1</dim>
					<dim>1</dim>
					<dim>3</dim>
					<dim>3</dim>
				</port>
			</input>
			<output>
				<port id="2" precision="FP32">
					<dim>1</dim>
					<dim>16</dim>
					<dim>100</dim>
					<dim>170</dim>
				</port>
			</output>
		</layer>
		<layer id="252" name="ActionNet/twinnet/shared/bottleneck2_8/inner_conv/biases/read/Output_0/Data_/copy_const" type="Const" version="opset1">
			<data element_type="f32" offset="98076" shape="1,16,1,1" size="64"/>
			<output>
				<port id="1" precision="FP32">
					<dim>1</dim>
					<dim>16</dim>
					<dim>1</dim>
					<dim>1</dim>
				</port>
			</output>
		</layer>
		<layer id="253" name="ActionNet/twinnet/shared/bottleneck2_8/inner_conv/BiasAdd/Add" type="Add" version="opset1">
			<input>
				<port id="0">
					<dim>1</dim>
					<dim>16</dim>
					<dim>100</dim>
					<dim>170</dim>
				</port>
				<port id="1">
					<dim>1</dim>
					<dim>16</dim>
					<dim>1</dim>
					<dim>1</dim>
				</port>
			</input>
			<output>
				<port id="2" precision="FP32">
					<dim>1</dim>
					<dim>16</dim>
					<dim>100</dim>
					<dim>170</dim>
				</port>
			</output>
		</layer>
		<layer id="254" name="ActionNet/twinnet/shared/bottleneck2_8/inner_conv/ActionNet/twinnet/shared/bottleneck2_8/inner_conv_fn_activation28537/Cast_138808_const" type="Const" version="opset1">
			<data element_type="f32" offset="3608" shape="1" size="4"/>
			<output>
				<port id="1" precision="FP32">
					<dim>1</dim>
				</port>
			</output>
		</layer>
		<layer id="255" name="ActionNet/twinnet/shared/bottleneck2_8/inner_conv/ActionNet/twinnet/shared/bottleneck2_8/inner_conv_fn_activation28537" type="PReLU" version="opset1">
			<input>
				<port id="0">
					<dim>1</dim>
					<dim>16</dim>
					<dim>100</dim>
					<dim>170</dim>
				</port>
				<port id="1">
					<dim>1</dim>
				</port>
			</input>
			<output>
				<port id="2" precision="FP32">
					<dim>1</dim>
					<dim>16</dim>
					<dim>100</dim>
					<dim>170</dim>
				</port>
			</output>
		</layer>
		<layer id="256" name="ActionNet/twinnet/shared/bottleneck2_8/dim_inc/weights/read/Output_0/Data__const" type="Const" version="opset1">
			<data element_type="f32" offset="98140" shape="64,16,1,1" size="4096"/>
			<output>
				<port id="1" precision="FP32">
					<dim>64</dim>
					<dim>16</dim>
					<dim>1</dim>
					<dim>1</dim>
				</port>
			</output>
		</layer>
		<layer id="257" name="ActionNet/twinnet/shared/bottleneck2_8/dim_inc/Conv2D" type="Convolution" version="opset1">
			<data auto_pad="same_upper" dilations="1,1" output_padding="0,0" pads_begin="0,0" pads_end="0,0" strides="1,1"/>
			<input>
				<port id="0">
					<dim>1</dim>
					<dim>16</dim>
					<dim>100</dim>
					<dim>170</dim>
				</port>
				<port id="1">
					<dim>64</dim>
					<dim>16</dim>
					<dim>1</dim>
					<dim>1</dim>
				</port>
			</input>
			<output>
				<port id="2" precision="FP32">
					<dim>1</dim>
					<dim>64</dim>
					<dim>100</dim>
					<dim>170</dim>
				</port>
			</output>
		</layer>
		<layer id="258" name="ActionNet/twinnet/shared/bottleneck2_8/dim_inc/biases/read/Output_0/Data_/copy_const" type="Const" version="opset1">
			<data element_type="f32" offset="102236" shape="1,64,1,1" size="256"/>
			<output>
				<port id="1" precision="FP32">
					<dim>1</dim>
					<dim>64</dim>
					<dim>1</dim>
					<dim>1</dim>
				</port>
			</output>
		</layer>
		<layer id="259" name="ActionNet/twinnet/shared/bottleneck2_8/dim_inc/BiasAdd/Add" type="Add" version="opset1">
			<input>
				<port id="0">
					<dim>1</dim>
					<dim>64</dim>
					<dim>100</dim>
					<dim>170</dim>
				</port>
				<port id="1">
					<dim>1</dim>
					<dim>64</dim>
					<dim>1</dim>
					<dim>1</dim>
				</port>
			</input>
			<output>
				<port id="2" precision="FP32">
					<dim>1</dim>
					<dim>64</dim>
					<dim>100</dim>
					<dim>170</dim>
				</port>
			</output>
		</layer>
		<layer id="260" name="ActionNet/twinnet/shared/bottleneck2_8/Add" type="Add" version="opset1">
			<input>
				<port id="0">
					<dim>1</dim>
					<dim>64</dim>
					<dim>100</dim>
					<dim>170</dim>
				</port>
				<port id="1">
					<dim>1</dim>
					<dim>64</dim>
					<dim>100</dim>
					<dim>170</dim>
				</port>
			</input>
			<output>
				<port id="2" precision="FP32">
					<dim>1</dim>
					<dim>64</dim>
					<dim>100</dim>
					<dim>170</dim>
				</port>
			</output>
		</layer>
		<layer id="261" name="ActionNet/twinnet/shared/bottleneck2_8/LeakyRelu28821/Cast_139040_const" type="Const" version="opset1">
			<data element_type="f32" offset="3608" shape="1" size="4"/>
			<output>
				<port id="1" precision="FP32">
					<dim>1</dim>
				</port>
			</output>
		</layer>
		<layer id="262" name="ActionNet/twinnet/shared/bottleneck2_8/LeakyRelu28821" type="PReLU" version="opset1">
			<input>
				<port id="0">
					<dim>1</dim>
					<dim>64</dim>
					<dim>100</dim>
					<dim>170</dim>
				</port>
				<port id="1">
					<dim>1</dim>
				</port>
			</input>
			<output>
				<port id="2" precision="FP32">
					<dim>1</dim>
					<dim>64</dim>
					<dim>100</dim>
					<dim>170</dim>
				</port>
			</output>
		</layer>
		<layer id="263" name="ActionNet/twinnet/classification/bottleneck3_0/dim_red/weights/read/Output_0/Data__const" type="Const" version="opset1">
			<data element_type="f32" offset="102492" shape="32,64,1,1" size="8192"/>
			<output>
				<port id="1" precision="FP32">
					<dim>32</dim>
					<dim>64</dim>
					<dim>1</dim>
					<dim>1</dim>
				</port>
			</output>
		</layer>
		<layer id="264" name="ActionNet/twinnet/classification/bottleneck3_0/dim_red/Conv2D" type="Convolution" version="opset1">
			<data auto_pad="same_upper" dilations="1,1" output_padding="0,0" pads_begin="0,0" pads_end="0,0" strides="1,1"/>
			<input>
				<port id="0">
					<dim>1</dim>
					<dim>64</dim>
					<dim>100</dim>
					<dim>170</dim>
				</port>
				<port id="1">
					<dim>32</dim>
					<dim>64</dim>
					<dim>1</dim>
					<dim>1</dim>
				</port>
			</input>
			<output>
				<port id="2" precision="FP32">
					<dim>1</dim>
					<dim>32</dim>
					<dim>100</dim>
					<dim>170</dim>
				</port>
			</output>
		</layer>
		<layer id="265" name="ActionNet/twinnet/classification/bottleneck3_0/dim_red/biases/read/Output_0/Data_/copy_const" type="Const" version="opset1">
			<data element_type="f32" offset="110684" shape="1,32,1,1" size="128"/>
			<output>
				<port id="1" precision="FP32">
					<dim>1</dim>
					<dim>32</dim>
					<dim>1</dim>
					<dim>1</dim>
				</port>
			</output>
		</layer>
		<layer id="266" name="ActionNet/twinnet/classification/bottleneck3_0/dim_red/BiasAdd/Add" type="Add" version="opset1">
			<input>
				<port id="0">
					<dim>1</dim>
					<dim>32</dim>
					<dim>100</dim>
					<dim>170</dim>
				</port>
				<port id="1">
					<dim>1</dim>
					<dim>32</dim>
					<dim>1</dim>
					<dim>1</dim>
				</port>
			</input>
			<output>
				<port id="2" precision="FP32">
					<dim>1</dim>
					<dim>32</dim>
					<dim>100</dim>
					<dim>170</dim>
				</port>
			</output>
		</layer>
		<layer id="267" name="ActionNet/twinnet/classification/bottleneck3_0/dim_red/ActionNet/twinnet/classification/bottleneck3_0/dim_red_fn_activation28481/Cast_139092_const" type="Const" version="opset1">
			<data element_type="f32" offset="3608" shape="1" size="4"/>
			<output>
				<port id="1" precision="FP32">
					<dim>1</dim>
				</port>
			</output>
		</layer>
		<layer id="268" name="ActionNet/twinnet/classification/bottleneck3_0/dim_red/ActionNet/twinnet/classification/bottleneck3_0/dim_red_fn_activation28481" type="PReLU" version="opset1">
			<input>
				<port id="0">
					<dim>1</dim>
					<dim>32</dim>
					<dim>100</dim>
					<dim>170</dim>
				</port>
				<port id="1">
					<dim>1</dim>
				</port>
			</input>
			<output>
				<port id="2" precision="FP32">
					<dim>1</dim>
					<dim>32</dim>
					<dim>100</dim>
					<dim>170</dim>
				</port>
			</output>
		</layer>
		<layer id="269" name="3726337266_const" type="Const" version="opset1">
			<data element_type="f32" offset="110812" shape="32,1,1,3,3" size="1152"/>
			<output>
				<port id="1" precision="FP32">
					<dim>32</dim>
					<dim>1</dim>
					<dim>1</dim>
					<dim>3</dim>
					<dim>3</dim>
				</port>
			</output>
		</layer>
		<layer id="270" name="ActionNet/twinnet/classification/bottleneck3_0/inner_conv/depthwise" type="GroupConvolution" version="opset1">
			<data auto_pad="same_upper" dilations="1,1" output_padding="0,0" pads_begin="0,0" pads_end="1,1" strides="2,2"/>
			<input>
				<port id="0">
					<dim>1</dim>
					<dim>32</dim>
					<dim>100</dim>
					<dim>170</dim>
				</port>
				<port id="1">
					<dim>32</dim>
					<dim>1</dim>
					<dim>1</dim>
					<dim>3</dim>
					<dim>3</dim>
				</port>
			</input>
			<output>
				<port id="2" precision="FP32">
					<dim>1</dim>
					<dim>32</dim>
					<dim>50</dim>
					<dim>85</dim>
				</port>
			</output>
		</layer>
		<layer id="271" name="ActionNet/twinnet/classification/bottleneck3_0/inner_conv/biases/read/Output_0/Data_/copy_const" type="Const" version="opset1">
			<data element_type="f32" offset="111964" shape="1,32,1,1" size="128"/>
			<output>
				<port id="1" precision="FP32">
					<dim>1</dim>
					<dim>32</dim>
					<dim>1</dim>
					<dim>1</dim>
				</port>
			</output>
		</layer>
		<layer id="272" name="ActionNet/twinnet/classification/bottleneck3_0/inner_conv/BiasAdd/Add" type="Add" version="opset1">
			<input>
				<port id="0">
					<dim>1</dim>
					<dim>32</dim>
					<dim>50</dim>
					<dim>85</dim>
				</port>
				<port id="1">
					<dim>1</dim>
					<dim>32</dim>
					<dim>1</dim>
					<dim>1</dim>
				</port>
			</input>
			<output>
				<port id="2" precision="FP32">
					<dim>1</dim>
					<dim>32</dim>
					<dim>50</dim>
					<dim>85</dim>
				</port>
			</output>
		</layer>
		<layer id="273" name="ActionNet/twinnet/classification/bottleneck3_0/inner_conv/ActionNet/twinnet/classification/bottleneck3_0/inner_conv_fn_activation28817/Cast_138798_const" type="Const" version="opset1">
			<data element_type="f32" offset="3608" shape="1" size="4"/>
			<output>
				<port id="1" precision="FP32">
					<dim>1</dim>
				</port>
			</output>
		</layer>
		<layer id="274" name="ActionNet/twinnet/classification/bottleneck3_0/inner_conv/ActionNet/twinnet/classification/bottleneck3_0/inner_conv_fn_activation28817" type="PReLU" version="opset1">
			<input>
				<port id="0">
					<dim>1</dim>
					<dim>32</dim>
					<dim>50</dim>
					<dim>85</dim>
				</port>
				<port id="1">
					<dim>1</dim>
				</port>
			</input>
			<output>
				<port id="2" precision="FP32">
					<dim>1</dim>
					<dim>32</dim>
					<dim>50</dim>
					<dim>85</dim>
				</port>
			</output>
		</layer>
		<layer id="275" name="ActionNet/twinnet/classification/bottleneck3_0/dim_inc/weights/read/Output_0/Data__const" type="Const" version="opset1">
			<data element_type="f32" offset="112092" shape="128,32,1,1" size="16384"/>
			<output>
				<port id="1" precision="FP32">
					<dim>128</dim>
					<dim>32</dim>
					<dim>1</dim>
					<dim>1</dim>
				</port>
			</output>
		</layer>
		<layer id="276" name="ActionNet/twinnet/classification/bottleneck3_0/dim_inc/Conv2D" type="Convolution" version="opset1">
			<data auto_pad="same_upper" dilations="1,1" output_padding="0,0" pads_begin="0,0" pads_end="0,0" strides="1,1"/>
			<input>
				<port id="0">
					<dim>1</dim>
					<dim>32</dim>
					<dim>50</dim>
					<dim>85</dim>
				</port>
				<port id="1">
					<dim>128</dim>
					<dim>32</dim>
					<dim>1</dim>
					<dim>1</dim>
				</port>
			</input>
			<output>
				<port id="2" precision="FP32">
					<dim>1</dim>
					<dim>128</dim>
					<dim>50</dim>
					<dim>85</dim>
				</port>
			</output>
		</layer>
		<layer id="277" name="ActionNet/twinnet/classification/bottleneck3_0/dim_inc/biases/read/Output_0/Data_/copy_const" type="Const" version="opset1">
			<data element_type="f32" offset="128476" shape="1,128,1,1" size="512"/>
			<output>
				<port id="1" precision="FP32">
					<dim>1</dim>
					<dim>128</dim>
					<dim>1</dim>
					<dim>1</dim>
				</port>
			</output>
		</layer>
		<layer id="278" name="ActionNet/twinnet/classification/bottleneck3_0/dim_inc/BiasAdd/Add" type="Add" version="opset1">
			<input>
				<port id="0">
					<dim>1</dim>
					<dim>128</dim>
					<dim>50</dim>
					<dim>85</dim>
				</port>
				<port id="1">
					<dim>1</dim>
					<dim>128</dim>
					<dim>1</dim>
					<dim>1</dim>
				</port>
			</input>
			<output>
				<port id="2" precision="FP32">
					<dim>1</dim>
					<dim>128</dim>
					<dim>50</dim>
					<dim>85</dim>
				</port>
			</output>
		</layer>
		<layer id="279" name="ActionNet/twinnet/classification/bottleneck3_0/max_pool/MaxPool" type="MaxPool" version="opset1">
			<data auto_pad="same_upper" kernel="2,2" pads_begin="0,0" pads_end="0,0" strides="2,2"/>
			<input>
				<port id="0">
					<dim>1</dim>
					<dim>64</dim>
					<dim>100</dim>
					<dim>170</dim>
				</port>
			</input>
			<output>
				<port id="1" precision="FP32">
					<dim>1</dim>
					<dim>64</dim>
					<dim>50</dim>
					<dim>85</dim>
				</port>
			</output>
		</layer>
		<layer id="280" name="ActionNet/twinnet/classification/bottleneck3_0/skip_conv/weights/read/Output_0/Data__const" type="Const" version="opset1">
			<data element_type="f32" offset="128988" shape="128,64,1,1" size="32768"/>
			<output>
				<port id="1" precision="FP32">
					<dim>128</dim>
					<dim>64</dim>
					<dim>1</dim>
					<dim>1</dim>
				</port>
			</output>
		</layer>
		<layer id="281" name="ActionNet/twinnet/classification/bottleneck3_0/skip_conv/Conv2D" type="Convolution" version="opset1">
			<data auto_pad="same_upper" dilations="1,1" output_padding="0,0" pads_begin="0,0" pads_end="0,0" strides="1,1"/>
			<input>
				<port id="0">
					<dim>1</dim>
					<dim>64</dim>
					<dim>50</dim>
					<dim>85</dim>
				</port>
				<port id="1">
					<dim>128</dim>
					<dim>64</dim>
					<dim>1</dim>
					<dim>1</dim>
				</port>
			</input>
			<output>
				<port id="2" precision="FP32">
					<dim>1</dim>
					<dim>128</dim>
					<dim>50</dim>
					<dim>85</dim>
				</port>
			</output>
		</layer>
		<layer id="282" name="ActionNet/twinnet/classification/bottleneck3_0/skip_conv/biases/read/Output_0/Data_/copy_const" type="Const" version="opset1">
			<data element_type="f32" offset="161756" shape="1,128,1,1" size="512"/>
			<output>
				<port id="1" precision="FP32">
					<dim>1</dim>
					<dim>128</dim>
					<dim>1</dim>
					<dim>1</dim>
				</port>
			</output>
		</layer>
		<layer id="283" name="ActionNet/twinnet/classification/bottleneck3_0/skip_conv/BiasAdd/Add" type="Add" version="opset1">
			<input>
				<port id="0">
					<dim>1</dim>
					<dim>128</dim>
					<dim>50</dim>
					<dim>85</dim>
				</port>
				<port id="1">
					<dim>1</dim>
					<dim>128</dim>
					<dim>1</dim>
					<dim>1</dim>
				</port>
			</input>
			<output>
				<port id="2" precision="FP32">
					<dim>1</dim>
					<dim>128</dim>
					<dim>50</dim>
					<dim>85</dim>
				</port>
			</output>
		</layer>
		<layer id="284" name="ActionNet/twinnet/classification/bottleneck3_0/Add" type="Add" version="opset1">
			<input>
				<port id="0">
					<dim>1</dim>
					<dim>128</dim>
					<dim>50</dim>
					<dim>85</dim>
				</port>
				<port id="1">
					<dim>1</dim>
					<dim>128</dim>
					<dim>50</dim>
					<dim>85</dim>
				</port>
			</input>
			<output>
				<port id="2" precision="FP32">
					<dim>1</dim>
					<dim>128</dim>
					<dim>50</dim>
					<dim>85</dim>
				</port>
			</output>
		</layer>
		<layer id="285" name="ActionNet/twinnet/classification/bottleneck3_0/LeakyRelu28601/Cast_139180_const" type="Const" version="opset1">
			<data element_type="f32" offset="3608" shape="1" size="4"/>
			<output>
				<port id="1" precision="FP32">
					<dim>1</dim>
				</port>
			</output>
		</layer>
		<layer id="286" name="ActionNet/twinnet/classification/bottleneck3_0/LeakyRelu28601" type="PReLU" version="opset1">
			<input>
				<port id="0">
					<dim>1</dim>
					<dim>128</dim>
					<dim>50</dim>
					<dim>85</dim>
				</port>
				<port id="1">
					<dim>1</dim>
				</port>
			</input>
			<output>
				<port id="2" precision="FP32">
					<dim>1</dim>
					<dim>128</dim>
					<dim>50</dim>
					<dim>85</dim>
				</port>
			</output>
		</layer>
		<layer id="287" name="ActionNet/twinnet/classification/bottleneck3_1/dim_red/weights/read/Output_0/Data__const" type="Const" version="opset1">
			<data element_type="f32" offset="162268" shape="32,128,1,1" size="16384"/>
			<output>
				<port id="1" precision="FP32">
					<dim>32</dim>
					<dim>128</dim>
					<dim>1</dim>
					<dim>1</dim>
				</port>
			</output>
		</layer>
		<layer id="288" name="ActionNet/twinnet/classification_1/bottleneck3_1/dim_red/Conv2D" type="Convolution" version="opset1">
			<data auto_pad="same_upper" dilations="1,1" output_padding="0,0" pads_begin="0,0" pads_end="0,0" strides="1,1"/>
			<input>
				<port id="0">
					<dim>1</dim>
					<dim>128</dim>
					<dim>50</dim>
					<dim>85</dim>
				</port>
				<port id="1">
					<dim>32</dim>
					<dim>128</dim>
					<dim>1</dim>
					<dim>1</dim>
				</port>
			</input>
			<output>
				<port id="2" precision="FP32">
					<dim>1</dim>
					<dim>32</dim>
					<dim>50</dim>
					<dim>85</dim>
				</port>
			</output>
		</layer>
		<layer id="289" name="ActionNet/twinnet/classification/bottleneck3_1/dim_red/biases/read/Output_0/Data_/copy_const" type="Const" version="opset1">
			<data element_type="f32" offset="178652" shape="1,32,1,1" size="128"/>
			<output>
				<port id="1" precision="FP32">
					<dim>1</dim>
					<dim>32</dim>
					<dim>1</dim>
					<dim>1</dim>
				</port>
			</output>
		</layer>
		<layer id="290" name="ActionNet/twinnet/classification_1/bottleneck3_1/dim_red/BiasAdd/Add" type="Add" version="opset1">
			<input>
				<port id="0">
					<dim>1</dim>
					<dim>32</dim>
					<dim>50</dim>
					<dim>85</dim>
				</port>
				<port id="1">
					<dim>1</dim>
					<dim>32</dim>
					<dim>1</dim>
					<dim>1</dim>
				</port>
			</input>
			<output>
				<port id="2" precision="FP32">
					<dim>1</dim>
					<dim>32</dim>
					<dim>50</dim>
					<dim>85</dim>
				</port>
			</output>
		</layer>
		<layer id="291" name="ActionNet/twinnet/classification_1/bottleneck3_1/dim_red/ActionNet/twinnet/classification/bottleneck3_1/dim_red_fn_activation28509/Cast_138876_const" type="Const" version="opset1">
			<data element_type="f32" offset="3608" shape="1" size="4"/>
			<output>
				<port id="1" precision="FP32">
					<dim>1</dim>
				</port>
			</output>
		</layer>
		<layer id="292" name="ActionNet/twinnet/classification_1/bottleneck3_1/dim_red/ActionNet/twinnet/classification/bottleneck3_1/dim_red_fn_activation28509" type="PReLU" version="opset1">
			<input>
				<port id="0">
					<dim>1</dim>
					<dim>32</dim>
					<dim>50</dim>
					<dim>85</dim>
				</port>
				<port id="1">
					<dim>1</dim>
				</port>
			</input>
			<output>
				<port id="2" precision="FP32">
					<dim>1</dim>
					<dim>32</dim>
					<dim>50</dim>
					<dim>85</dim>
				</port>
			</output>
		</layer>
		<layer id="293" name="3743137434_const" type="Const" version="opset1">
			<data element_type="f32" offset="178780" shape="32,1,1,3,3" size="1152"/>
			<output>
				<port id="1" precision="FP32">
					<dim>32</dim>
					<dim>1</dim>
					<dim>1</dim>
					<dim>3</dim>
					<dim>3</dim>
				</port>
			</output>
		</layer>
		<layer id="294" name="ActionNet/twinnet/classification_1/bottleneck3_1/inner_conv/depthwise" type="GroupConvolution" version="opset1">
			<data auto_pad="same_upper" dilations="1,1" output_padding="0,0" pads_begin="1,1" pads_end="1,1" strides="1,1"/>
			<input>
				<port id="0">
					<dim>1</dim>
					<dim>32</dim>
					<dim>50</dim>
					<dim>85</dim>
				</port>
				<port id="1">
					<dim>32</dim>
					<dim>1</dim>
					<dim>1</dim>
					<dim>3</dim>
					<dim>3</dim>
				</port>
			</input>
			<output>
				<port id="2" precision="FP32">
					<dim>1</dim>
					<dim>32</dim>
					<dim>50</dim>
					<dim>85</dim>
				</port>
			</output>
		</layer>
		<layer id="295" name="ActionNet/twinnet/classification/bottleneck3_1/inner_conv/biases/read/Output_0/Data_/copy_const" type="Const" version="opset1">
			<data element_type="f32" offset="179932" shape="1,32,1,1" size="128"/>
			<output>
				<port id="1" precision="FP32">
					<dim>1</dim>
					<dim>32</dim>
					<dim>1</dim>
					<dim>1</dim>
				</port>
			</output>
		</layer>
		<layer id="296" name="ActionNet/twinnet/classification_1/bottleneck3_1/inner_conv/BiasAdd/Add" type="Add" version="opset1">
			<input>
				<port id="0">
					<dim>1</dim>
					<dim>32</dim>
					<dim>50</dim>
					<dim>85</dim>
				</port>
				<port id="1">
					<dim>1</dim>
					<dim>32</dim>
					<dim>1</dim>
					<dim>1</dim>
				</port>
			</input>
			<output>
				<port id="2" precision="FP32">
					<dim>1</dim>
					<dim>32</dim>
					<dim>50</dim>
					<dim>85</dim>
				</port>
			</output>
		</layer>
		<layer id="297" name="ActionNet/twinnet/classification_1/bottleneck3_1/inner_conv/ActionNet/twinnet/classification/bottleneck3_1/inner_conv_fn_activation28233/Cast_138920_const" type="Const" version="opset1">
			<data element_type="f32" offset="3608" shape="1" size="4"/>
			<output>
				<port id="1" precision="FP32">
					<dim>1</dim>
				</port>
			</output>
		</layer>
		<layer id="298" name="ActionNet/twinnet/classification_1/bottleneck3_1/inner_conv/ActionNet/twinnet/classification/bottleneck3_1/inner_conv_fn_activation28233" type="PReLU" version="opset1">
			<input>
				<port id="0">
					<dim>1</dim>
					<dim>32</dim>
					<dim>50</dim>
					<dim>85</dim>
				</port>
				<port id="1">
					<dim>1</dim>
				</port>
			</input>
			<output>
				<port id="2" precision="FP32">
					<dim>1</dim>
					<dim>32</dim>
					<dim>50</dim>
					<dim>85</dim>
				</port>
			</output>
		</layer>
		<layer id="299" name="ActionNet/twinnet/classification/bottleneck3_1/dim_inc/weights/read/Output_0/Data__const" type="Const" version="opset1">
			<data element_type="f32" offset="180060" shape="128,32,1,1" size="16384"/>
			<output>
				<port id="1" precision="FP32">
					<dim>128</dim>
					<dim>32</dim>
					<dim>1</dim>
					<dim>1</dim>
				</port>
			</output>
		</layer>
		<layer id="300" name="ActionNet/twinnet/classification_1/bottleneck3_1/dim_inc/Conv2D" type="Convolution" version="opset1">
			<data auto_pad="same_upper" dilations="1,1" output_padding="0,0" pads_begin="0,0" pads_end="0,0" strides="1,1"/>
			<input>
				<port id="0">
					<dim>1</dim>
					<dim>32</dim>
					<dim>50</dim>
					<dim>85</dim>
				</port>
				<port id="1">
					<dim>128</dim>
					<dim>32</dim>
					<dim>1</dim>
					<dim>1</dim>
				</port>
			</input>
			<output>
				<port id="2" precision="FP32">
					<dim>1</dim>
					<dim>128</dim>
					<dim>50</dim>
					<dim>85</dim>
				</port>
			</output>
		</layer>
		<layer id="301" name="ActionNet/twinnet/classification/bottleneck3_1/dim_inc/biases/read/Output_0/Data_/copy_const" type="Const" version="opset1">
			<data element_type="f32" offset="196444" shape="1,128,1,1" size="512"/>
			<output>
				<port id="1" precision="FP32">
					<dim>1</dim>
					<dim>128</dim>
					<dim>1</dim>
					<dim>1</dim>
				</port>
			</output>
		</layer>
		<layer id="302" name="ActionNet/twinnet/classification_1/bottleneck3_1/dim_inc/BiasAdd/Add" type="Add" version="opset1">
			<input>
				<port id="0">
					<dim>1</dim>
					<dim>128</dim>
					<dim>50</dim>
					<dim>85</dim>
				</port>
				<port id="1">
					<dim>1</dim>
					<dim>128</dim>
					<dim>1</dim>
					<dim>1</dim>
				</port>
			</input>
			<output>
				<port id="2" precision="FP32">
					<dim>1</dim>
					<dim>128</dim>
					<dim>50</dim>
					<dim>85</dim>
				</port>
			</output>
		</layer>
		<layer id="303" name="ActionNet/twinnet/classification_1/bottleneck3_1/Add" type="Add" version="opset1">
			<input>
				<port id="0">
					<dim>1</dim>
					<dim>128</dim>
					<dim>50</dim>
					<dim>85</dim>
				</port>
				<port id="1">
					<dim>1</dim>
					<dim>128</dim>
					<dim>50</dim>
					<dim>85</dim>
				</port>
			</input>
			<output>
				<port id="2" precision="FP32">
					<dim>1</dim>
					<dim>128</dim>
					<dim>50</dim>
					<dim>85</dim>
				</port>
			</output>
		</layer>
		<layer id="304" name="ActionNet/twinnet/classification_1/bottleneck3_1/LeakyRelu28489/Cast_139076_const" type="Const" version="opset1">
			<data element_type="f32" offset="3608" shape="1" size="4"/>
			<output>
				<port id="1" precision="FP32">
					<dim>1</dim>
				</port>
			</output>
		</layer>
		<layer id="305" name="ActionNet/twinnet/classification_1/bottleneck3_1/LeakyRelu28489" type="PReLU" version="opset1">
			<input>
				<port id="0">
					<dim>1</dim>
					<dim>128</dim>
					<dim>50</dim>
					<dim>85</dim>
				</port>
				<port id="1">
					<dim>1</dim>
				</port>
			</input>
			<output>
				<port id="2" precision="FP32">
					<dim>1</dim>
					<dim>128</dim>
					<dim>50</dim>
					<dim>85</dim>
				</port>
			</output>
		</layer>
		<layer id="306" name="ActionNet/twinnet/classification/bottleneck3_2/dim_red/weights/read/Output_0/Data__const" type="Const" version="opset1">
			<data element_type="f32" offset="196956" shape="32,128,1,1" size="16384"/>
			<output>
				<port id="1" precision="FP32">
					<dim>32</dim>
					<dim>128</dim>
					<dim>1</dim>
					<dim>1</dim>
				</port>
			</output>
		</layer>
		<layer id="307" name="ActionNet/twinnet/classification_2/bottleneck3_2/dim_red/Conv2D" type="Convolution" version="opset1">
			<data auto_pad="same_upper" dilations="1,1" output_padding="0,0" pads_begin="0,0" pads_end="0,0" strides="1,1"/>
			<input>
				<port id="0">
					<dim>1</dim>
					<dim>128</dim>
					<dim>50</dim>
					<dim>85</dim>
				</port>
				<port id="1">
					<dim>32</dim>
					<dim>128</dim>
					<dim>1</dim>
					<dim>1</dim>
				</port>
			</input>
			<output>
				<port id="2" precision="FP32">
					<dim>1</dim>
					<dim>32</dim>
					<dim>50</dim>
					<dim>85</dim>
				</port>
			</output>
		</layer>
		<layer id="308" name="ActionNet/twinnet/classification/bottleneck3_2/dim_red/biases/read/Output_0/Data_/copy_const" type="Const" version="opset1">
			<data element_type="f32" offset="213340" shape="1,32,1,1" size="128"/>
			<output>
				<port id="1" precision="FP32">
					<dim>1</dim>
					<dim>32</dim>
					<dim>1</dim>
					<dim>1</dim>
				</port>
			</output>
		</layer>
		<layer id="309" name="ActionNet/twinnet/classification_2/bottleneck3_2/dim_red/BiasAdd/Add" type="Add" version="opset1">
			<input>
				<port id="0">
					<dim>1</dim>
					<dim>32</dim>
					<dim>50</dim>
					<dim>85</dim>
				</port>
				<port id="1">
					<dim>1</dim>
					<dim>32</dim>
					<dim>1</dim>
					<dim>1</dim>
				</port>
			</input>
			<output>
				<port id="2" precision="FP32">
					<dim>1</dim>
					<dim>32</dim>
					<dim>50</dim>
					<dim>85</dim>
				</port>
			</output>
		</layer>
		<layer id="310" name="ActionNet/twinnet/classification_2/bottleneck3_2/dim_red/ActionNet/twinnet/classification/bottleneck3_2/dim_red_fn_activation28561/Cast_138946_const" type="Const" version="opset1">
			<data element_type="f32" offset="3608" shape="1" size="4"/>
			<output>
				<port id="1" precision="FP32">
					<dim>1</dim>
				</port>
			</output>
		</layer>
		<layer id="311" name="ActionNet/twinnet/classification_2/bottleneck3_2/dim_red/ActionNet/twinnet/classification/bottleneck3_2/dim_red_fn_activation28561" type="PReLU" version="opset1">
			<input>
				<port id="0">
					<dim>1</dim>
					<dim>32</dim>
					<dim>50</dim>
					<dim>85</dim>
				</port>
				<port id="1">
					<dim>1</dim>
				</port>
			</input>
			<output>
				<port id="2" precision="FP32">
					<dim>1</dim>
					<dim>32</dim>
					<dim>50</dim>
					<dim>85</dim>
				</port>
			</output>
		</layer>
		<layer id="312" name="3737937382_const" type="Const" version="opset1">
			<data element_type="f32" offset="213468" shape="32,1,1,3,3" size="1152"/>
			<output>
				<port id="1" precision="FP32">
					<dim>32</dim>
					<dim>1</dim>
					<dim>1</dim>
					<dim>3</dim>
					<dim>3</dim>
				</port>
			</output>
		</layer>
		<layer id="313" name="ActionNet/twinnet/classification_2/bottleneck3_2/inner_conv/depthwise" type="GroupConvolution" version="opset1">
			<data auto_pad="same_upper" dilations="1,1" output_padding="0,0" pads_begin="1,1" pads_end="1,1" strides="1,1"/>
			<input>
				<port id="0">
					<dim>1</dim>
					<dim>32</dim>
					<dim>50</dim>
					<dim>85</dim>
				</port>
				<port id="1">
					<dim>32</dim>
					<dim>1</dim>
					<dim>1</dim>
					<dim>3</dim>
					<dim>3</dim>
				</port>
			</input>
			<output>
				<port id="2" precision="FP32">
					<dim>1</dim>
					<dim>32</dim>
					<dim>50</dim>
					<dim>85</dim>
				</port>
			</output>
		</layer>
		<layer id="314" name="ActionNet/twinnet/classification/bottleneck3_2/inner_conv/biases/read/Output_0/Data_/copy_const" type="Const" version="opset1">
			<data element_type="f32" offset="214620" shape="1,32,1,1" size="128"/>
			<output>
				<port id="1" precision="FP32">
					<dim>1</dim>
					<dim>32</dim>
					<dim>1</dim>
					<dim>1</dim>
				</port>
			</output>
		</layer>
		<layer id="315" name="ActionNet/twinnet/classification_2/bottleneck3_2/inner_conv/BiasAdd/Add" type="Add" version="opset1">
			<input>
				<port id="0">
					<dim>1</dim>
					<dim>32</dim>
					<dim>50</dim>
					<dim>85</dim>
				</port>
				<port id="1">
					<dim>1</dim>
					<dim>32</dim>
					<dim>1</dim>
					<dim>1</dim>
				</port>
			</input>
			<output>
				<port id="2" precision="FP32">
					<dim>1</dim>
					<dim>32</dim>
					<dim>50</dim>
					<dim>85</dim>
				</port>
			</output>
		</layer>
		<layer id="316" name="ActionNet/twinnet/classification_2/bottleneck3_2/inner_conv/ActionNet/twinnet/classification/bottleneck3_2/inner_conv_fn_activation28677/Cast_139100_const" type="Const" version="opset1">
			<data element_type="f32" offset="3608" shape="1" size="4"/>
			<output>
				<port id="1" precision="FP32">
					<dim>1</dim>
				</port>
			</output>
		</layer>
		<layer id="317" name="ActionNet/twinnet/classification_2/bottleneck3_2/inner_conv/ActionNet/twinnet/classification/bottleneck3_2/inner_conv_fn_activation28677" type="PReLU" version="opset1">
			<input>
				<port id="0">
					<dim>1</dim>
					<dim>32</dim>
					<dim>50</dim>
					<dim>85</dim>
				</port>
				<port id="1">
					<dim>1</dim>
				</port>
			</input>
			<output>
				<port id="2" precision="FP32">
					<dim>1</dim>
					<dim>32</dim>
					<dim>50</dim>
					<dim>85</dim>
				</port>
			</output>
		</layer>
		<layer id="318" name="ActionNet/twinnet/classification/bottleneck3_2/dim_inc/weights/read/Output_0/Data__const" type="Const" version="opset1">
			<data element_type="f32" offset="214748" shape="128,32,1,1" size="16384"/>
			<output>
				<port id="1" precision="FP32">
					<dim>128</dim>
					<dim>32</dim>
					<dim>1</dim>
					<dim>1</dim>
				</port>
			</output>
		</layer>
		<layer id="319" name="ActionNet/twinnet/classification_2/bottleneck3_2/dim_inc/Conv2D" type="Convolution" version="opset1">
			<data auto_pad="same_upper" dilations="1,1" output_padding="0,0" pads_begin="0,0" pads_end="0,0" strides="1,1"/>
			<input>
				<port id="0">
					<dim>1</dim>
					<dim>32</dim>
					<dim>50</dim>
					<dim>85</dim>
				</port>
				<port id="1">
					<dim>128</dim>
					<dim>32</dim>
					<dim>1</dim>
					<dim>1</dim>
				</port>
			</input>
			<output>
				<port id="2" precision="FP32">
					<dim>1</dim>
					<dim>128</dim>
					<dim>50</dim>
					<dim>85</dim>
				</port>
			</output>
		</layer>
		<layer id="320" name="ActionNet/twinnet/classification/bottleneck3_2/dim_inc/biases/read/Output_0/Data_/copy_const" type="Const" version="opset1">
			<data element_type="f32" offset="231132" shape="1,128,1,1" size="512"/>
			<output>
				<port id="1" precision="FP32">
					<dim>1</dim>
					<dim>128</dim>
					<dim>1</dim>
					<dim>1</dim>
				</port>
			</output>
		</layer>
		<layer id="321" name="ActionNet/twinnet/classification_2/bottleneck3_2/dim_inc/BiasAdd/Add" type="Add" version="opset1">
			<input>
				<port id="0">
					<dim>1</dim>
					<dim>128</dim>
					<dim>50</dim>
					<dim>85</dim>
				</port>
				<port id="1">
					<dim>1</dim>
					<dim>128</dim>
					<dim>1</dim>
					<dim>1</dim>
				</port>
			</input>
			<output>
				<port id="2" precision="FP32">
					<dim>1</dim>
					<dim>128</dim>
					<dim>50</dim>
					<dim>85</dim>
				</port>
			</output>
		</layer>
		<layer id="322" name="ActionNet/twinnet/classification_2/bottleneck3_2/Add" type="Add" version="opset1">
			<input>
				<port id="0">
					<dim>1</dim>
					<dim>128</dim>
					<dim>50</dim>
					<dim>85</dim>
				</port>
				<port id="1">
					<dim>1</dim>
					<dim>128</dim>
					<dim>50</dim>
					<dim>85</dim>
				</port>
			</input>
			<output>
				<port id="2" precision="FP32">
					<dim>1</dim>
					<dim>128</dim>
					<dim>50</dim>
					<dim>85</dim>
				</port>
			</output>
		</layer>
		<layer id="323" name="ActionNet/twinnet/classification_2/bottleneck3_2/LeakyRelu28497/Cast_139124_const" type="Const" version="opset1">
			<data element_type="f32" offset="3608" shape="1" size="4"/>
			<output>
				<port id="1" precision="FP32">
					<dim>1</dim>
				</port>
			</output>
		</layer>
		<layer id="324" name="ActionNet/twinnet/classification_2/bottleneck3_2/LeakyRelu28497" type="PReLU" version="opset1">
			<input>
				<port id="0">
					<dim>1</dim>
					<dim>128</dim>
					<dim>50</dim>
					<dim>85</dim>
				</port>
				<port id="1">
					<dim>1</dim>
				</port>
			</input>
			<output>
				<port id="2" precision="FP32">
					<dim>1</dim>
					<dim>128</dim>
					<dim>50</dim>
					<dim>85</dim>
				</port>
			</output>
		</layer>
		<layer id="325" name="ActionNet/twinnet/classification/bottleneck3_3/dim_red/weights/read/Output_0/Data__const" type="Const" version="opset1">
			<data element_type="f32" offset="231644" shape="32,128,1,1" size="16384"/>
			<output>
				<port id="1" precision="FP32">
					<dim>32</dim>
					<dim>128</dim>
					<dim>1</dim>
					<dim>1</dim>
				</port>
			</output>
		</layer>
		<layer id="326" name="ActionNet/twinnet/classification_3/bottleneck3_3/dim_red/Conv2D" type="Convolution" version="opset1">
			<data auto_pad="same_upper" dilations="1,1" output_padding="0,0" pads_begin="0,0" pads_end="0,0" strides="1,1"/>
			<input>
				<port id="0">
					<dim>1</dim>
					<dim>128</dim>
					<dim>50</dim>
					<dim>85</dim>
				</port>
				<port id="1">
					<dim>32</dim>
					<dim>128</dim>
					<dim>1</dim>
					<dim>1</dim>
				</port>
			</input>
			<output>
				<port id="2" precision="FP32">
					<dim>1</dim>
					<dim>32</dim>
					<dim>50</dim>
					<dim>85</dim>
				</port>
			</output>
		</layer>
		<layer id="327" name="ActionNet/twinnet/classification/bottleneck3_3/dim_red/biases/read/Output_0/Data_/copy_const" type="Const" version="opset1">
			<data element_type="f32" offset="248028" shape="1,32,1,1" size="128"/>
			<output>
				<port id="1" precision="FP32">
					<dim>1</dim>
					<dim>32</dim>
					<dim>1</dim>
					<dim>1</dim>
				</port>
			</output>
		</layer>
		<layer id="328" name="ActionNet/twinnet/classification_3/bottleneck3_3/dim_red/BiasAdd/Add" type="Add" version="opset1">
			<input>
				<port id="0">
					<dim>1</dim>
					<dim>32</dim>
					<dim>50</dim>
					<dim>85</dim>
				</port>
				<port id="1">
					<dim>1</dim>
					<dim>32</dim>
					<dim>1</dim>
					<dim>1</dim>
				</port>
			</input>
			<output>
				<port id="2" precision="FP32">
					<dim>1</dim>
					<dim>32</dim>
					<dim>50</dim>
					<dim>85</dim>
				</port>
			</output>
		</layer>
		<layer id="329" name="ActionNet/twinnet/classification_3/bottleneck3_3/dim_red/ActionNet/twinnet/classification/bottleneck3_3/dim_red_fn_activation28185/Cast_138852_const" type="Const" version="opset1">
			<data element_type="f32" offset="3608" shape="1" size="4"/>
			<output>
				<port id="1" precision="FP32">
					<dim>1</dim>
				</port>
			</output>
		</layer>
		<layer id="330" name="ActionNet/twinnet/classification_3/bottleneck3_3/dim_red/ActionNet/twinnet/classification/bottleneck3_3/dim_red_fn_activation28185" type="PReLU" version="opset1">
			<input>
				<port id="0">
					<dim>1</dim>
					<dim>32</dim>
					<dim>50</dim>
					<dim>85</dim>
				</port>
				<port id="1">
					<dim>1</dim>
				</port>
			</input>
			<output>
				<port id="2" precision="FP32">
					<dim>1</dim>
					<dim>32</dim>
					<dim>50</dim>
					<dim>85</dim>
				</port>
			</output>
		</layer>
		<layer id="331" name="3738737390_const" type="Const" version="opset1">
			<data element_type="f32" offset="248156" shape="32,1,1,3,3" size="1152"/>
			<output>
				<port id="1" precision="FP32">
					<dim>32</dim>
					<dim>1</dim>
					<dim>1</dim>
					<dim>3</dim>
					<dim>3</dim>
				</port>
			</output>
…
		<edge from-layer="507" from-port="2" to-layer="779" to-port="1"/>
		<edge from-layer="779" from-port="2" to-layer="781" to-port="0"/>
		<edge from-layer="780" from-port="1" to-layer="781" to-port="1"/>
		<edge from-layer="781" from-port="2" to-layer="783" to-port="0"/>
		<edge from-layer="782" from-port="1" to-layer="783" to-port="1"/>
		<edge from-layer="783" from-port="2" to-layer="785" to-port="0"/>
		<edge from-layer="784" from-port="1" to-layer="785" to-port="1"/>
		<edge from-layer="785" from-port="2" to-layer="787" to-port="0"/>
		<edge from-layer="786" from-port="1" to-layer="787" to-port="1"/>
		<edge from-layer="787" from-port="2" to-layer="789" to-port="0"/>
		<edge from-layer="788" from-port="1" to-layer="789" to-port="1"/>
		<edge from-layer="789" from-port="2" to-layer="791" to-port="0"/>
		<edge from-layer="790" from-port="1" to-layer="791" to-port="1"/>
		<edge from-layer="791" from-port="2" to-layer="793" to-port="0"/>
		<edge from-layer="792" from-port="1" to-layer="793" to-port="1"/>
		<edge from-layer="793" from-port="2" to-layer="795" to-port="0"/>
		<edge from-layer="794" from-port="1" to-layer="795" to-port="1"/>
		<edge from-layer="795" from-port="2" to-layer="797" to-port="0"/>
		<edge from-layer="796" from-port="1" to-layer="797" to-port="1"/>
		<edge from-layer="797" from-port="2" to-layer="798" to-port="0"/>
		<edge from-layer="781" from-port="2" to-layer="798" to-port="1"/>
		<edge from-layer="798" from-port="2" to-layer="800" to-port="0"/>
		<edge from-layer="799" from-port="1" to-layer="800" to-port="1"/>
		<edge from-layer="800" from-port="2" to-layer="802" to-port="0"/>
		<edge from-layer="801" from-port="1" to-layer="802" to-port="1"/>
		<edge from-layer="802" from-port="2" to-layer="804" to-port="0"/>
		<edge from-layer="803" from-port="1" to-layer="804" to-port="1"/>
		<edge from-layer="804" from-port="2" to-layer="806" to-port="0"/>
		<edge from-layer="805" from-port="1" to-layer="806" to-port="1"/>
		<edge from-layer="806" from-port="2" to-layer="808" to-port="0"/>
		<edge from-layer="807" from-port="1" to-layer="808" to-port="1"/>
		<edge from-layer="808" from-port="2" to-layer="810" to-port="0"/>
		<edge from-layer="809" from-port="1" to-layer="810" to-port="1"/>
		<edge from-layer="810" from-port="2" to-layer="812" to-port="0"/>
		<edge from-layer="811" from-port="1" to-layer="812" to-port="1"/>
		<edge from-layer="812" from-port="2" to-layer="814" to-port="0"/>
		<edge from-layer="813" from-port="1" to-layer="814" to-port="1"/>
		<edge from-layer="814" from-port="2" to-layer="816" to-port="0"/>
		<edge from-layer="815" from-port="1" to-layer="816" to-port="1"/>
		<edge from-layer="816" from-port="2" to-layer="817" to-port="0"/>
		<edge from-layer="800" from-port="2" to-layer="817" to-port="1"/>
		<edge from-layer="817" from-port="2" to-layer="819" to-port="0"/>
		<edge from-layer="818" from-port="1" to-layer="819" to-port="1"/>
		<edge from-layer="819" from-port="2" to-layer="821" to-port="0"/>
		<edge from-layer="820" from-port="1" to-layer="821" to-port="1"/>
		<edge from-layer="821" from-port="2" to-layer="823" to-port="0"/>
		<edge from-layer="822" from-port="1" to-layer="823" to-port="1"/>
		<edge from-layer="823" from-port="2" to-layer="825" to-port="0"/>
		<edge from-layer="824" from-port="1" to-layer="825" to-port="1"/>
		<edge from-layer="825" from-port="2" to-layer="827" to-port="0"/>
		<edge from-layer="826" from-port="1" to-layer="827" to-port="1"/>
		<edge from-layer="827" from-port="2" to-layer="829" to-port="0"/>
		<edge from-layer="828" from-port="1" to-layer="829" to-port="1"/>
		<edge from-layer="829" from-port="2" to-layer="831" to-port="0"/>
		<edge from-layer="830" from-port="1" to-layer="831" to-port="1"/>
		<edge from-layer="831" from-port="2" to-layer="833" to-port="0"/>
		<edge from-layer="832" from-port="1" to-layer="833" to-port="1"/>
		<edge from-layer="833" from-port="2" to-layer="835" to-port="0"/>
		<edge from-layer="834" from-port="1" to-layer="835" to-port="1"/>
		<edge from-layer="835" from-port="2" to-layer="836" to-port="0"/>
		<edge from-layer="819" from-port="2" to-layer="836" to-port="1"/>
		<edge from-layer="836" from-port="2" to-layer="838" to-port="0"/>
		<edge from-layer="837" from-port="1" to-layer="838" to-port="1"/>
		<edge from-layer="838" from-port="2" to-layer="840" to-port="0"/>
		<edge from-layer="839" from-port="1" to-layer="840" to-port="1"/>
		<edge from-layer="840" from-port="2" to-layer="842" to-port="0"/>
		<edge from-layer="841" from-port="1" to-layer="842" to-port="1"/>
		<edge from-layer="842" from-port="2" to-layer="844" to-port="0"/>
		<edge from-layer="843" from-port="1" to-layer="844" to-port="1"/>
		<edge from-layer="844" from-port="2" to-layer="846" to-port="0"/>
		<edge from-layer="845" from-port="1" to-layer="846" to-port="1"/>
		<edge from-layer="846" from-port="2" to-layer="848" to-port="0"/>
		<edge from-layer="847" from-port="1" to-layer="848" to-port="1"/>
		<edge from-layer="848" from-port="2" to-layer="850" to-port="0"/>
		<edge from-layer="849" from-port="1" to-layer="850" to-port="1"/>
		<edge from-layer="850" from-port="2" to-layer="852" to-port="0"/>
		<edge from-layer="851" from-port="1" to-layer="852" to-port="1"/>
		<edge from-layer="852" from-port="2" to-layer="854" to-port="0"/>
		<edge from-layer="853" from-port="1" to-layer="854" to-port="1"/>
		<edge from-layer="838" from-port="2" to-layer="855" to-port="0"/>
		<edge from-layer="855" from-port="1" to-layer="857" to-port="0"/>
		<edge from-layer="856" from-port="1" to-layer="857" to-port="1"/>
		<edge from-layer="857" from-port="2" to-layer="859" to-port="0"/>
		<edge from-layer="858" from-port="1" to-layer="859" to-port="1"/>
		<edge from-layer="854" from-port="2" to-layer="860" to-port="0"/>
		<edge from-layer="859" from-port="2" to-layer="860" to-port="1"/>
		<edge from-layer="860" from-port="2" to-layer="862" to-port="0"/>
		<edge from-layer="861" from-port="1" to-layer="862" to-port="1"/>
		<edge from-layer="862" from-port="2" to-layer="864" to-port="0"/>
		<edge from-layer="863" from-port="1" to-layer="864" to-port="1"/>
		<edge from-layer="864" from-port="2" to-layer="866" to-port="0"/>
		<edge from-layer="865" from-port="1" to-layer="866" to-port="1"/>
		<edge from-layer="866" from-port="2" to-layer="868" to-port="0"/>
		<edge from-layer="867" from-port="1" to-layer="868" to-port="1"/>
		<edge from-layer="868" from-port="2" to-layer="870" to-port="0"/>
		<edge from-layer="869" from-port="1" to-layer="870" to-port="1"/>
		<edge from-layer="870" from-port="2" to-layer="872" to-port="0"/>
		<edge from-layer="871" from-port="1" to-layer="872" to-port="1"/>
		<edge from-layer="872" from-port="2" to-layer="874" to-port="0"/>
		<edge from-layer="873" from-port="1" to-layer="874" to-port="1"/>
		<edge from-layer="874" from-port="2" to-layer="876" to-port="0"/>
		<edge from-layer="875" from-port="1" to-layer="876" to-port="1"/>
		<edge from-layer="876" from-port="2" to-layer="878" to-port="0"/>
		<edge from-layer="877" from-port="1" to-layer="878" to-port="1"/>
		<edge from-layer="878" from-port="2" to-layer="879" to-port="0"/>
		<edge from-layer="862" from-port="2" to-layer="879" to-port="1"/>
		<edge from-layer="879" from-port="2" to-layer="881" to-port="0"/>
		<edge from-layer="880" from-port="1" to-layer="881" to-port="1"/>
		<edge from-layer="881" from-port="2" to-layer="883" to-port="0"/>
		<edge from-layer="882" from-port="1" to-layer="883" to-port="1"/>
		<edge from-layer="883" from-port="2" to-layer="885" to-port="0"/>
		<edge from-layer="884" from-port="1" to-layer="885" to-port="1"/>
		<edge from-layer="885" from-port="2" to-layer="887" to-port="0"/>
		<edge from-layer="886" from-port="1" to-layer="887" to-port="1"/>
		<edge from-layer="887" from-port="2" to-layer="889" to-port="0"/>
		<edge from-layer="888" from-port="1" to-layer="889" to-port="1"/>
		<edge from-layer="889" from-port="2" to-layer="891" to-port="0"/>
		<edge from-layer="890" from-port="1" to-layer="891" to-port="1"/>
		<edge from-layer="891" from-port="2" to-layer="893" to-port="0"/>
		<edge from-layer="892" from-port="1" to-layer="893" to-port="1"/>
		<edge from-layer="893" from-port="2" to-layer="895" to-port="0"/>
		<edge from-layer="894" from-port="1" to-layer="895" to-port="1"/>
		<edge from-layer="895" from-port="2" to-layer="897" to-port="0"/>
		<edge from-layer="896" from-port="1" to-layer="897" to-port="1"/>
		<edge from-layer="897" from-port="2" to-layer="898" to-port="0"/>
		<edge from-layer="881" from-port="2" to-layer="898" to-port="1"/>
		<edge from-layer="898" from-port="2" to-layer="900" to-port="0"/>
		<edge from-layer="899" from-port="1" to-layer="900" to-port="1"/>
		<edge from-layer="900" from-port="2" to-layer="902" to-port="0"/>
		<edge from-layer="901" from-port="1" to-layer="902" to-port="1"/>
		<edge from-layer="902" from-port="2" to-layer="904" to-port="0"/>
		<edge from-layer="903" from-port="1" to-layer="904" to-port="1"/>
		<edge from-layer="904" from-port="2" to-layer="906" to-port="0"/>
		<edge from-layer="905" from-port="1" to-layer="906" to-port="1"/>
		<edge from-layer="906" from-port="2" to-layer="908" to-port="0"/>
		<edge from-layer="907" from-port="1" to-layer="908" to-port="1"/>
		<edge from-layer="908" from-port="2" to-layer="910" to-port="0"/>
		<edge from-layer="909" from-port="1" to-layer="910" to-port="1"/>
		<edge from-layer="910" from-port="2" to-layer="912" to-port="0"/>
		<edge from-layer="911" from-port="1" to-layer="912" to-port="1"/>
		<edge from-layer="912" from-port="2" to-layer="914" to-port="0"/>
		<edge from-layer="913" from-port="1" to-layer="914" to-port="1"/>
		<edge from-layer="914" from-port="2" to-layer="916" to-port="0"/>
		<edge from-layer="915" from-port="1" to-layer="916" to-port="1"/>
		<edge from-layer="916" from-port="2" to-layer="917" to-port="0"/>
		<edge from-layer="900" from-port="2" to-layer="917" to-port="1"/>
		<edge from-layer="917" from-port="2" to-layer="919" to-port="0"/>
		<edge from-layer="918" from-port="1" to-layer="919" to-port="1"/>
		<edge from-layer="774" from-port="2" to-layer="920" to-port="0"/>
		<edge from-layer="919" from-port="2" to-layer="920" to-port="1"/>
		<edge from-layer="920" from-port="2" to-layer="922" to-port="0"/>
		<edge from-layer="921" from-port="1" to-layer="922" to-port="1"/>
		<edge from-layer="922" from-port="2" to-layer="924" to-port="0"/>
		<edge from-layer="923" from-port="1" to-layer="924" to-port="1"/>
		<edge from-layer="924" from-port="2" to-layer="926" to-port="0"/>
		<edge from-layer="925" from-port="1" to-layer="926" to-port="1"/>
		<edge from-layer="926" from-port="2" to-layer="928" to-port="0"/>
		<edge from-layer="927" from-port="1" to-layer="928" to-port="1"/>
		<edge from-layer="928" from-port="2" to-layer="930" to-port="0"/>
		<edge from-layer="929" from-port="1" to-layer="930" to-port="1"/>
		<edge from-layer="930" from-port="2" to-layer="932" to-port="0"/>
		<edge from-layer="931" from-port="1" to-layer="932" to-port="1"/>
		<edge from-layer="932" from-port="2" to-layer="934" to-port="0"/>
		<edge from-layer="933" from-port="1" to-layer="934" to-port="1"/>
		<edge from-layer="934" from-port="2" to-layer="936" to-port="0"/>
		<edge from-layer="935" from-port="1" to-layer="936" to-port="1"/>
		<edge from-layer="936" from-port="2" to-layer="938" to-port="0"/>
		<edge from-layer="937" from-port="1" to-layer="938" to-port="1"/>
		<edge from-layer="938" from-port="2" to-layer="939" to-port="0"/>
		<edge from-layer="922" from-port="2" to-layer="939" to-port="1"/>
		<edge from-layer="939" from-port="2" to-layer="941" to-port="0"/>
		<edge from-layer="940" from-port="1" to-layer="941" to-port="1"/>
		<edge from-layer="941" from-port="2" to-layer="943" to-port="0"/>
		<edge from-layer="942" from-port="1" to-layer="943" to-port="1"/>
		<edge from-layer="943" from-port="2" to-layer="945" to-port="0"/>
		<edge from-layer="944" from-port="1" to-layer="945" to-port="1"/>
		<edge from-layer="945" from-port="2" to-layer="947" to-port="0"/>
		<edge from-layer="946" from-port="1" to-layer="947" to-port="1"/>
		<edge from-layer="947" from-port="2" to-layer="949" to-port="0"/>
		<edge from-layer="948" from-port="1" to-layer="949" to-port="1"/>
		<edge from-layer="949" from-port="2" to-layer="951" to-port="0"/>
		<edge from-layer="950" from-port="1" to-layer="951" to-port="1"/>
		<edge from-layer="951" from-port="2" to-layer="953" to-port="0"/>
		<edge from-layer="952" from-port="1" to-layer="953" to-port="1"/>
		<edge from-layer="953" from-port="2" to-layer="955" to-port="0"/>
		<edge from-layer="954" from-port="1" to-layer="955" to-port="1"/>
		<edge from-layer="955" from-port="2" to-layer="957" to-port="0"/>
		<edge from-layer="956" from-port="1" to-layer="957" to-port="1"/>
		<edge from-layer="957" from-port="2" to-layer="958" to-port="0"/>
		<edge from-layer="941" from-port="2" to-layer="958" to-port="1"/>
		<edge from-layer="958" from-port="2" to-layer="960" to-port="0"/>
		<edge from-layer="959" from-port="1" to-layer="960" to-port="1"/>
		<edge from-layer="960" from-port="2" to-layer="962" to-port="0"/>
		<edge from-layer="961" from-port="1" to-layer="962" to-port="1"/>
		<edge from-layer="962" from-port="2" to-layer="964" to-port="0"/>
		<edge from-layer="963" from-port="1" to-layer="964" to-port="1"/>
		<edge from-layer="964" from-port="2" to-layer="966" to-port="0"/>
		<edge from-layer="965" from-port="1" to-layer="966" to-port="1"/>
		<edge from-layer="966" from-port="2" to-layer="968" to-port="0"/>
		<edge from-layer="967" from-port="1" to-layer="968" to-port="1"/>
		<edge from-layer="968" from-port="2" to-layer="970" to-port="0"/>
		<edge from-layer="969" from-port="1" to-layer="970" to-port="1"/>
		<edge from-layer="970" from-port="2" to-layer="972" to-port="0"/>
		<edge from-layer="971" from-port="1" to-layer="972" to-port="1"/>
		<edge from-layer="972" from-port="2" to-layer="974" to-port="0"/>
		<edge from-layer="973" from-port="1" to-layer="974" to-port="1"/>
		<edge from-layer="974" from-port="2" to-layer="976" to-port="0"/>
		<edge from-layer="975" from-port="1" to-layer="976" to-port="1"/>
		<edge from-layer="976" from-port="2" to-layer="977" to-port="0"/>
		<edge from-layer="960" from-port="2" to-layer="977" to-port="1"/>
		<edge from-layer="977" from-port="2" to-layer="979" to-port="0"/>
		<edge from-layer="978" from-port="1" to-layer="979" to-port="1"/>
		<edge from-layer="979" from-port="2" to-layer="981" to-port="0"/>
		<edge from-layer="980" from-port="1" to-layer="981" to-port="1"/>
		<edge from-layer="981" from-port="2" to-layer="983" to-port="0"/>
		<edge from-layer="982" from-port="1" to-layer="983" to-port="1"/>
		<edge from-layer="983" from-port="2" to-layer="985" to-port="0"/>
		<edge from-layer="984" from-port="1" to-layer="985" to-port="1"/>
		<edge from-layer="985" from-port="2" to-layer="987" to-port="0"/>
		<edge from-layer="986" from-port="1" to-layer="987" to-port="1"/>
		<edge from-layer="987" from-port="2" to-layer="989" to-port="0"/>
		<edge from-layer="988" from-port="1" to-layer="989" to-port="1"/>
		<edge from-layer="989" from-port="2" to-layer="991" to-port="0"/>
		<edge from-layer="990" from-port="1" to-layer="991" to-port="1"/>
		<edge from-layer="991" from-port="2" to-layer="993" to-port="0"/>
		<edge from-layer="992" from-port="1" to-layer="993" to-port="1"/>
		<edge from-layer="993" from-port="2" to-layer="995" to-port="0"/>
		<edge from-layer="994" from-port="1" to-layer="995" to-port="1"/>
		<edge from-layer="995" from-port="2" to-layer="996" to-port="0"/>
		<edge from-layer="979" from-port="2" to-layer="996" to-port="1"/>
		<edge from-layer="996" from-port="2" to-layer="998" to-port="0"/>
		<edge from-layer="997" from-port="1" to-layer="998" to-port="1"/>
		<edge from-layer="998" from-port="2" to-layer="1000" to-port="0"/>
		<edge from-layer="999" from-port="1" to-layer="1000" to-port="1"/>
		<edge from-layer="1000" from-port="2" to-layer="1002" to-port="0"/>
		<edge from-layer="1001" from-port="1" to-layer="1002" to-port="1"/>
		<edge from-layer="919" from-port="2" to-layer="1004" to-port="0"/>
		<edge from-layer="1003" from-port="1" to-layer="1004" to-port="1"/>
		<edge from-layer="1004" from-port="2" to-layer="1006" to-port="0"/>
		<edge from-layer="1005" from-port="1" to-layer="1006" to-port="1"/>
		<edge from-layer="1006" from-port="2" to-layer="1007" to-port="0"/>
		<edge from-layer="770" from-port="2" to-layer="1007" to-port="1"/>
		<edge from-layer="1007" from-port="2" to-layer="1009" to-port="0"/>
		<edge from-layer="1008" from-port="1" to-layer="1009" to-port="1"/>
		<edge from-layer="1009" from-port="2" to-layer="1011" to-port="0"/>
		<edge from-layer="1010" from-port="1" to-layer="1011" to-port="1"/>
		<edge from-layer="1011" from-port="2" to-layer="1013" to-port="0"/>
		<edge from-layer="1012" from-port="1" to-layer="1013" to-port="1"/>
		<edge from-layer="1013" from-port="2" to-layer="1015" to-port="0"/>
		<edge from-layer="1014" from-port="1" to-layer="1015" to-port="1"/>
		<edge from-layer="1015" from-port="2" to-layer="1017" to-port="0"/>
		<edge from-layer="1016" from-port="1" to-layer="1017" to-port="1"/>
		<edge from-layer="1017" from-port="2" to-layer="1019" to-port="0"/>
		<edge from-layer="1018" from-port="1" to-layer="1019" to-port="1"/>
		<edge from-layer="1019" from-port="2" to-layer="1021" to-port="0"/>
		<edge from-layer="1020" from-port="1" to-layer="1021" to-port="1"/>
		<edge from-layer="1021" from-port="2" to-layer="1023" to-port="0"/>
		<edge from-layer="1022" from-port="1" to-layer="1023" to-port="1"/>
		<edge from-layer="1023" from-port="2" to-layer="1025" to-port="0"/>
		<edge from-layer="1024" from-port="1" to-layer="1025" to-port="1"/>
		<edge from-layer="1025" from-port="2" to-layer="1026" to-port="0"/>
		<edge from-layer="1009" from-port="2" to-layer="1026" to-port="1"/>
		<edge from-layer="1026" from-port="2" to-layer="1028" to-port="0"/>
		<edge from-layer="1027" from-port="1" to-layer="1028" to-port="1"/>
		<edge from-layer="1028" from-port="2" to-layer="1030" to-port="0"/>
		<edge from-layer="1029" from-port="1" to-layer="1030" to-port="1"/>
		<edge from-layer="1030" from-port="2" to-layer="1032" to-port="0"/>
		<edge from-layer="1031" from-port="1" to-layer="1032" to-port="1"/>
		<edge from-layer="1032" from-port="2" to-layer="1034" to-port="0"/>
		<edge from-layer="1033" from-port="1" to-layer="1034" to-port="1"/>
		<edge from-layer="1034" from-port="2" to-layer="1036" to-port="0"/>
		<edge from-layer="1035" from-port="1" to-layer="1036" to-port="1"/>
		<edge from-layer="1036" from-port="2" to-layer="1038" to-port="0"/>
		<edge from-layer="1037" from-port="1" to-layer="1038" to-port="1"/>
		<edge from-layer="1038" from-port="2" to-layer="1040" to-port="0"/>
		<edge from-layer="1039" from-port="1" to-layer="1040" to-port="1"/>
		<edge from-layer="1040" from-port="2" to-layer="1042" to-port="0"/>
		<edge from-layer="1041" from-port="1" to-layer="1042" to-port="1"/>
		<edge from-layer="1042" from-port="2" to-layer="1044" to-port="0"/>
		<edge from-layer="1043" from-port="1" to-layer="1044" to-port="1"/>
		<edge from-layer="1044" from-port="2" to-layer="1045" to-port="0"/>
		<edge from-layer="1028" from-port="2" to-layer="1045" to-port="1"/>
		<edge from-layer="1045" from-port="2" to-layer="1047" to-port="0"/>
		<edge from-layer="1046" from-port="1" to-layer="1047" to-port="1"/>
		<edge from-layer="1047" from-port="2" to-layer="1049" to-port="0"/>
		<edge from-layer="1048" from-port="1" to-layer="1049" to-port="1"/>
		<edge from-layer="1049" from-port="2" to-layer="1051" to-port="0"/>
		<edge from-layer="1050" from-port="1" to-layer="1051" to-port="1"/>
		<edge from-layer="1051" from-port="2" to-layer="1053" to-port="0"/>
		<edge from-layer="1052" from-port="1" to-layer="1053" to-port="1"/>
		<edge from-layer="1053" from-port="2" to-layer="1055" to-port="0"/>
		<edge from-layer="1054" from-port="1" to-layer="1055" to-port="1"/>
		<edge from-layer="1055" from-port="2" to-layer="1057" to-port="0"/>
		<edge from-layer="1056" from-port="1" to-layer="1057" to-port="1"/>
		<edge from-layer="1057" from-port="2" to-layer="1059" to-port="0"/>
		<edge from-layer="1058" from-port="1" to-layer="1059" to-port="1"/>
		<edge from-layer="1059" from-port="2" to-layer="1061" to-port="0"/>
		<edge from-layer="1060" from-port="1" to-layer="1061" to-port="1"/>
		<edge from-layer="1061" from-port="2" to-layer="1063" to-port="0"/>
		<edge from-layer="1062" from-port="1" to-layer="1063" to-port="1"/>
		<edge from-layer="1063" from-port="2" to-layer="1064" to-port="0"/>
		<edge from-layer="1047" from-port="2" to-layer="1064" to-port="1"/>
		<edge from-layer="1064" from-port="2" to-layer="1066" to-port="0"/>
		<edge from-layer="1065" from-port="1" to-layer="1066" to-port="1"/>
		<edge from-layer="1066" from-port="2" to-layer="1068" to-port="0"/>
		<edge from-layer="1067" from-port="1" to-layer="1068" to-port="1"/>
		<edge from-layer="1068" from-port="2" to-layer="1070" to-port="0"/>
		<edge from-layer="1069" from-port="1" to-layer="1070" to-port="1"/>
		<edge from-layer="1070" from-port="2" to-layer="1072" to-port="0"/>
		<edge from-layer="1071" from-port="1" to-layer="1072" to-port="1"/>
		<edge from-layer="1072" from-port="2" to-layer="1074" to-port="0"/>
		<edge from-layer="1073" from-port="1" to-layer="1074" to-port="1"/>
		<edge from-layer="1074" from-port="2" to-layer="1076" to-port="0"/>
		<edge from-layer="1075" from-port="1" to-layer="1076" to-port="1"/>
		<edge from-layer="1076" from-port="2" to-layer="1078" to-port="0"/>
		<edge from-layer="1077" from-port="1" to-layer="1078" to-port="1"/>
		<edge from-layer="1078" from-port="2" to-layer="1080" to-port="0"/>
		<edge from-layer="1079" from-port="1" to-layer="1080" to-port="1"/>
		<edge from-layer="1080" from-port="2" to-layer="1082" to-port="0"/>
		<edge from-layer="1081" from-port="1" to-layer="1082" to-port="1"/>
		<edge from-layer="1082" from-port="2" to-layer="1083" to-port="0"/>
		<edge from-layer="1066" from-port="2" to-layer="1083" to-port="1"/>
		<edge from-layer="1083" from-port="2" to-layer="1085" to-port="0"/>
		<edge from-layer="1084" from-port="1" to-layer="1085" to-port="1"/>
		<edge from-layer="1002" from-port="2" to-layer="1086" to-port="0"/>
		<edge from-layer="1085" from-port="2" to-layer="1086" to-port="1"/>
		<edge from-layer="1086" from-port="2" to-layer="1088" to-port="0"/>
		<edge from-layer="1087" from-port="1" to-layer="1088" to-port="1"/>
		<edge from-layer="1088" from-port="2" to-layer="1090" to-port="0"/>
		<edge from-layer="1089" from-port="1" to-layer="1090" to-port="1"/>
		<edge from-layer="1090" from-port="2" to-layer="1092" to-port="0"/>
		<edge from-layer="1091" from-port="1" to-layer="1092" to-port="1"/>
		<edge from-layer="1092" from-port="2" to-layer="1094" to-port="0"/>
		<edge from-layer="1093" from-port="1" to-layer="1094" to-port="1"/>
		<edge from-layer="1094" from-port="2" to-layer="1096" to-port="0"/>
		<edge from-layer="1095" from-port="1" to-layer="1096" to-port="1"/>
		<edge from-layer="1096" from-port="2" to-layer="1098" to-port="0"/>
		<edge from-layer="1097" from-port="1" to-layer="1098" to-port="1"/>
		<edge from-layer="1098" from-port="2" to-layer="1100" to-port="0"/>
		<edge from-layer="1099" from-port="1" to-layer="1100" to-port="1"/>
		<edge from-layer="1100" from-port="2" to-layer="1102" to-port="0"/>
		<edge from-layer="1101" from-port="1" to-layer="1102" to-port="1"/>
		<edge from-layer="1102" from-port="2" to-layer="1104" to-port="0"/>
		<edge from-layer="1103" from-port="1" to-layer="1104" to-port="1"/>
		<edge from-layer="1104" from-port="2" to-layer="1105" to-port="0"/>
		<edge from-layer="1088" from-port="2" to-layer="1105" to-port="1"/>
		<edge from-layer="1105" from-port="2" to-layer="1107" to-port="0"/>
		<edge from-layer="1106" from-port="1" to-layer="1107" to-port="1"/>
		<edge from-layer="1107" from-port="2" to-layer="1109" to-port="0"/>
		<edge from-layer="1108" from-port="1" to-layer="1109" to-port="1"/>
		<edge from-layer="1109" from-port="2" to-layer="1111" to-port="0"/>
		<edge from-layer="1110" from-port="1" to-layer="1111" to-port="1"/>
		<edge from-layer="1111" from-port="2" to-layer="1113" to-port="0"/>
		<edge from-layer="1112" from-port="1" to-layer="1113" to-port="1"/>
		<edge from-layer="1113" from-port="2" to-layer="1115" to-port="0"/>
		<edge from-layer="1114" from-port="1" to-layer="1115" to-port="1"/>
		<edge from-layer="1115" from-port="2" to-layer="1117" to-port="0"/>
		<edge from-layer="1116" from-port="1" to-layer="1117" to-port="1"/>
		<edge from-layer="1117" from-port="2" to-layer="1119" to-port="0"/>
		<edge from-layer="1118" from-port="1" to-layer="1119" to-port="1"/>
		<edge from-layer="1119" from-port="2" to-layer="1121" to-port="0"/>
		<edge from-layer="1120" from-port="1" to-layer="1121" to-port="1"/>
		<edge from-layer="1121" from-port="2" to-layer="1123" to-port="0"/>
		<edge from-layer="1122" from-port="1" to-layer="1123" to-port="1"/>
		<edge from-layer="1123" from-port="2" to-layer="1124" to-port="0"/>
		<edge from-layer="1107" from-port="2" to-layer="1124" to-port="1"/>
		<edge from-layer="1124" from-port="2" to-layer="1126" to-port="0"/>
		<edge from-layer="1125" from-port="1" to-layer="1126" to-port="1"/>
		<edge from-layer="1126" from-port="2" to-layer="1128" to-port="0"/>
		<edge from-layer="1127" from-port="1" to-layer="1128" to-port="1"/>
		<edge from-layer="1128" from-port="2" to-layer="1130" to-port="0"/>
		<edge from-layer="1129" from-port="1" to-layer="1130" to-port="1"/>
		<edge from-layer="1130" from-port="2" to-layer="1132" to-port="0"/>
		<edge from-layer="1131" from-port="1" to-layer="1132" to-port="1"/>
		<edge from-layer="1132" from-port="2" to-layer="1134" to-port="0"/>
		<edge from-layer="1133" from-port="1" to-layer="1134" to-port="1"/>
		<edge from-layer="1134" from-port="2" to-layer="1136" to-port="0"/>
		<edge from-layer="1135" from-port="1" to-layer="1136" to-port="1"/>
		<edge from-layer="1136" from-port="2" to-layer="1138" to-port="0"/>
		<edge from-layer="1137" from-port="1" to-layer="1138" to-port="1"/>
		<edge from-layer="1138" from-port="2" to-layer="1140" to-port="0"/>
		<edge from-layer="1139" from-port="1" to-layer="1140" to-port="1"/>
		<edge from-layer="1140" from-port="2" to-layer="1142" to-port="0"/>
		<edge from-layer="1141" from-port="1" to-layer="1142" to-port="1"/>
		<edge from-layer="1142" from-port="2" to-layer="1143" to-port="0"/>
		<edge from-layer="1126" from-port="2" to-layer="1143" to-port="1"/>
		<edge from-layer="1143" from-port="2" to-layer="1145" to-port="0"/>
		<edge from-layer="1144" from-port="1" to-layer="1145" to-port="1"/>
		<edge from-layer="1145" from-port="2" to-layer="1147" to-port="0"/>
		<edge from-layer="1146" from-port="1" to-layer="1147" to-port="1"/>
		<edge from-layer="1147" from-port="2" to-layer="1149" to-port="0"/>
		<edge from-layer="1148" from-port="1" to-layer="1149" to-port="1"/>
		<edge from-layer="1149" from-port="2" to-layer="1151" to-port="0"/>
		<edge from-layer="1150" from-port="1" to-layer="1151" to-port="1"/>
		<edge from-layer="1151" from-port="2" to-layer="1153" to-port="0"/>
		<edge from-layer="1152" from-port="1" to-layer="1153" to-port="1"/>
		<edge from-layer="1153" from-port="2" to-layer="1155" to-port="0"/>
		<edge from-layer="1154" from-port="1" to-layer="1155" to-port="1"/>
		<edge from-layer="1155" from-port="2" to-layer="1157" to-port="0"/>
		<edge from-layer="1156" from-port="1" to-layer="1157" to-port="1"/>
		<edge from-layer="1157" from-port="2" to-layer="1159" to-port="0"/>
		<edge from-layer="1158" from-port="1" to-layer="1159" to-port="1"/>
		<edge from-layer="1159" from-port="2" to-layer="1161" to-port="0"/>
		<edge from-layer="1160" from-port="1" to-layer="1161" to-port="1"/>
		<edge from-layer="1161" from-port="2" to-layer="1162" to-port="0"/>
		<edge from-layer="1145" from-port="2" to-layer="1162" to-port="1"/>
		<edge from-layer="1162" from-port="2" to-layer="1164" to-port="0"/>
		<edge from-layer="1163" from-port="1" to-layer="1164" to-port="1"/>
		<edge from-layer="1164" from-port="2" to-layer="1166" to-port="0"/>
		<edge from-layer="1165" from-port="1" to-layer="1166" to-port="1"/>
		<edge from-layer="1166" from-port="2" to-layer="1168" to-port="0"/>
		<edge from-layer="1167" from-port="1" to-layer="1168" to-port="1"/>
		<edge from-layer="1168" from-port="2" to-layer="1170" to-port="0"/>
		<edge from-layer="1169" from-port="1" to-layer="1170" to-port="1"/>
		<edge from-layer="1170" from-port="2" to-layer="1172" to-port="0"/>
		<edge from-layer="1171" from-port="1" to-layer="1172" to-port="1"/>
		<edge from-layer="1172" from-port="2" to-layer="1174" to-port="0"/>
		<edge from-layer="1173" from-port="1" to-layer="1174" to-port="1"/>
		<edge from-layer="1174" from-port="2" to-layer="1176" to-port="0"/>
		<edge from-layer="1175" from-port="1" to-layer="1176" to-port="1"/>
		<edge from-layer="1176" from-port="2" to-layer="1178" to-port="0"/>
		<edge from-layer="1177" from-port="1" to-layer="1178" to-port="1"/>
		<edge from-layer="1178" from-port="2" to-layer="1180" to-port="0"/>
		<edge from-layer="1179" from-port="1" to-layer="1180" to-port="1"/>
		<edge from-layer="1180" from-port="2" to-layer="1182" to-port="0"/>
		<edge from-layer="1181" from-port="1" to-layer="1182" to-port="1"/>
		<edge from-layer="1182" from-port="2" to-layer="1184" to-port="0"/>
		<edge from-layer="1183" from-port="1" to-layer="1184" to-port="1"/>
		<edge from-layer="1184" from-port="2" to-layer="1186" to-port="0"/>
		<edge from-layer="1185" from-port="1" to-layer="1186" to-port="1"/>
		<edge from-layer="1186" from-port="2" to-layer="1188" to-port="0"/>
		<edge from-layer="1187" from-port="1" to-layer="1188" to-port="1"/>
		<edge from-layer="1188" from-port="2" to-layer="1190" to-port="0"/>
		<edge from-layer="1189" from-port="1" to-layer="1190" to-port="1"/>
		<edge from-layer="1190" from-port="2" to-layer="1192" to-port="0"/>
		<edge from-layer="1191" from-port="1" to-layer="1192" to-port="1"/>
		<edge from-layer="1192" from-port="2" to-layer="1194" to-port="0"/>
		<edge from-layer="1193" from-port="1" to-layer="1194" to-port="1"/>
		<edge from-layer="1194" from-port="2" to-layer="1196" to-port="0"/>
		<edge from-layer="1195" from-port="1" to-layer="1196" to-port="1"/>
		<edge from-layer="1196" from-port="2" to-layer="1198" to-port="0"/>
		<edge from-layer="1197" from-port="1" to-layer="1198" to-port="1"/>
		<edge from-layer="1198" from-port="2" to-layer="1199" to-port="0"/>
		<edge from-layer="1174" from-port="2" to-layer="1201" to-port="0"/>
		<edge from-layer="1200" from-port="1" to-layer="1201" to-port="1"/>
		<edge from-layer="1201" from-port="2" to-layer="1203" to-port="0"/>
		<edge from-layer="1202" from-port="1" to-layer="1203" to-port="1"/>
		<edge from-layer="1203" from-port="2" to-layer="1205" to-port="0"/>
		<edge from-layer="1204" from-port="1" to-layer="1205" to-port="1"/>
		<edge from-layer="1205" from-port="2" to-layer="1207" to-port="0"/>
		<edge from-layer="1206" from-port="1" to-layer="1207" to-port="1"/>
		<edge from-layer="1207" from-port="2" to-layer="1209" to-port="0"/>
		<edge from-layer="1208" from-port="1" to-layer="1209" to-port="1"/>
		<edge from-layer="1209" from-port="2" to-layer="1211" to-port="0"/>
		<edge from-layer="1210" from-port="1" to-layer="1211" to-port="1"/>
		<edge from-layer="1211" from-port="2" to-layer="1213" to-port="0"/>
		<edge from-layer="1212" from-port="1" to-layer="1213" to-port="1"/>
		<edge from-layer="1213" from-port="2" to-layer="1215" to-port="0"/>
		<edge from-layer="1214" from-port="1" to-layer="1215" to-port="1"/>
		<edge from-layer="1215" from-port="2" to-layer="1217" to-port="0"/>
		<edge from-layer="1216" from-port="1" to-layer="1217" to-port="1"/>
		<edge from-layer="1217" from-port="2" to-layer="1219" to-port="0"/>
		<edge from-layer="1218" from-port="1" to-layer="1219" to-port="1"/>
		<edge from-layer="1219" from-port="2" to-layer="1221" to-port="0"/>
		<edge from-layer="1220" from-port="1" to-layer="1221" to-port="1"/>
		<edge from-layer="1221" from-port="2" to-layer="1223" to-port="0"/>
		<edge from-layer="1222" from-port="1" to-layer="1223" to-port="1"/>
		<edge from-layer="1223" from-port="2" to-layer="1224" to-port="0"/>
		<edge from-layer="1174" from-port="2" to-layer="1226" to-port="0"/>
		<edge from-layer="1225" from-port="1" to-layer="1226" to-port="1"/>
		<edge from-layer="1226" from-port="2" to-layer="1228" to-port="0"/>
		<edge from-layer="1227" from-port="1" to-layer="1228" to-port="1"/>
		<edge from-layer="1228" from-port="2" to-layer="1230" to-port="0"/>
		<edge from-layer="1229" from-port="1" to-layer="1230" to-port="1"/>
		<edge from-layer="1230" from-port="2" to-layer="1232" to-port="0"/>
		<edge from-layer="1231" from-port="1" to-layer="1232" to-port="1"/>
		<edge from-layer="1232" from-port="2" to-layer="1234" to-port="0"/>
		<edge from-layer="1233" from-port="1" to-layer="1234" to-port="1"/>
		<edge from-layer="1234" from-port="2" to-layer="1236" to-port="0"/>
		<edge from-layer="1235" from-port="1" to-layer="1236" to-port="1"/>
		<edge from-layer="1236" from-port="2" to-layer="1238" to-port="0"/>
		<edge from-layer="1237" from-port="1" to-layer="1238" to-port="1"/>
		<edge from-layer="1238" from-port="2" to-layer="1240" to-port="0"/>
		<edge from-layer="1239" from-port="1" to-layer="1240" to-port="1"/>
		<edge from-layer="1240" from-port="2" to-layer="1242" to-port="0"/>
		<edge from-layer="1241" from-port="1" to-layer="1242" to-port="1"/>
		<edge from-layer="1242" from-port="2" to-layer="1244" to-port="0"/>
		<edge from-layer="1243" from-port="1" to-layer="1244" to-port="1"/>
		<edge from-layer="1244" from-port="2" to-layer="1246" to-port="0"/>
		<edge from-layer="1245" from-port="1" to-layer="1246" to-port="1"/>
		<edge from-layer="1246" from-port="2" to-layer="1248" to-port="0"/>
		<edge from-layer="1247" from-port="1" to-layer="1248" to-port="1"/>
		<edge from-layer="1248" from-port="2" to-layer="1249" to-port="0"/>
		<edge from-layer="1174" from-port="2" to-layer="1251" to-port="0"/>
		<edge from-layer="1250" from-port="1" to-layer="1251" to-port="1"/>
		<edge from-layer="1251" from-port="2" to-layer="1253" to-port="0"/>
		<edge from-layer="1252" from-port="1" to-layer="1253" to-port="1"/>
		<edge from-layer="1253" from-port="2" to-layer="1255" to-port="0"/>
		<edge from-layer="1254" from-port="1" to-layer="1255" to-port="1"/>
		<edge from-layer="1255" from-port="2" to-layer="1257" to-port="0"/>
		<edge from-layer="1256" from-port="1" to-layer="1257" to-port="1"/>
		<edge from-layer="1257" from-port="2" to-layer="1259" to-port="0"/>
		<edge from-layer="1258" from-port="1" to-layer="1259" to-port="1"/>
		<edge from-layer="1259" from-port="2" to-layer="1261" to-port="0"/>
		<edge from-layer="1260" from-port="1" to-layer="1261" to-port="1"/>
		<edge from-layer="1261" from-port="2" to-layer="1263" to-port="0"/>
		<edge from-layer="1262" from-port="1" to-layer="1263" to-port="1"/>
		<edge from-layer="1263" from-port="2" to-layer="1265" to-port="0"/>
		<edge from-layer="1264" from-port="1" to-layer="1265" to-port="1"/>
		<edge from-layer="1265" from-port="2" to-layer="1267" to-port="0"/>
		<edge from-layer="1266" from-port="1" to-layer="1267" to-port="1"/>
		<edge from-layer="1267" from-port="2" to-layer="1269" to-port="0"/>
		<edge from-layer="1268" from-port="1" to-layer="1269" to-port="1"/>
		<edge from-layer="1269" from-port="2" to-layer="1271" to-port="0"/>
		<edge from-layer="1270" from-port="1" to-layer="1271" to-port="1"/>
		<edge from-layer="1271" from-port="2" to-layer="1273" to-port="0"/>
		<edge from-layer="1272" from-port="1" to-layer="1273" to-port="1"/>
		<edge from-layer="1273" from-port="2" to-layer="1274" to-port="0"/>
		<edge from-layer="838" from-port="2" to-layer="1276" to-port="0"/>
		<edge from-layer="1275" from-port="1" to-layer="1276" to-port="1"/>
		<edge from-layer="1276" from-port="2" to-layer="1278" to-port="0"/>
		<edge from-layer="1277" from-port="1" to-layer="1278" to-port="1"/>
		<edge from-layer="1278" from-port="2" to-layer="1280" to-port="0"/>
		<edge from-layer="1279" from-port="1" to-layer="1280" to-port="1"/>
		<edge from-layer="1280" from-port="2" to-layer="1282" to-port="0"/>
		<edge from-layer="1281" from-port="1" to-layer="1282" to-port="1"/>
		<edge from-layer="1282" from-port="2" to-layer="1284" to-port="0"/>
		<edge from-layer="1283" from-port="1" to-layer="1284" to-port="1"/>
		<edge from-layer="1284" from-port="2" to-layer="1286" to-port="0"/>
		<edge from-layer="1285" from-port="1" to-layer="1286" to-port="1"/>
		<edge from-layer="1286" from-port="2" to-layer="1288" to-port="0"/>
		<edge from-layer="1287" from-port="1" to-layer="1288" to-port="1"/>
		<edge from-layer="1288" from-port="2" to-layer="1290" to-port="0"/>
		<edge from-layer="1289" from-port="1" to-layer="1290" to-port="1"/>
		<edge from-layer="1290" from-port="2" to-layer="1292" to-port="0"/>
		<edge from-layer="1291" from-port="1" to-layer="1292" to-port="1"/>
		<edge from-layer="1085" from-port="2" to-layer="1294" to-port="0"/>
		<edge from-layer="1293" from-port="1" to-layer="1294" to-port="1"/>
		<edge from-layer="1294" from-port="2" to-layer="1296" to-port="0"/>
		<edge from-layer="1295" from-port="1" to-layer="1296" to-port="1"/>
		<edge from-layer="1296" from-port="2" to-layer="1297" to-port="0"/>
		<edge from-layer="998" from-port="2" to-layer="1297" to-port="1"/>
		<edge from-layer="1297" from-port="2" to-layer="1299" to-port="0"/>
		<edge from-layer="1298" from-port="1" to-layer="1299" to-port="1"/>
		<edge from-layer="1299" from-port="2" to-layer="1301" to-port="0"/>
		<edge from-layer="1300" from-port="1" to-layer="1301" to-port="1"/>
		<edge from-layer="1301" from-port="2" to-layer="1303" to-port="0"/>
		<edge from-layer="1302" from-port="1" to-layer="1303" to-port="1"/>
		<edge from-layer="1303" from-port="2" to-layer="1305" to-port="0"/>
		<edge from-layer="1304" from-port="1" to-layer="1305" to-port="1"/>
		<edge from-layer="1305" from-port="2" to-layer="1307" to-port="0"/>
		<edge from-layer="1306" from-port="1" to-layer="1307" to-port="1"/>
		<edge from-layer="1307" from-port="2" to-layer="1309" to-port="0"/>
		<edge from-layer="1308" from-port="1" to-layer="1309" to-port="1"/>
		<edge from-layer="1309" from-port="2" to-layer="1311" to-port="0"/>
		<edge from-layer="1310" from-port="1" to-layer="1311" to-port="1"/>
		<edge from-layer="1311" from-port="2" to-layer="1313" to-port="0"/>
		<edge from-layer="1312" from-port="1" to-layer="1313" to-port="1"/>
		<edge from-layer="1313" from-port="2" to-layer="1315" to-port="0"/>
		<edge from-layer="1314" from-port="1" to-layer="1315" to-port="1"/>
		<edge from-layer="1315" from-port="2" to-layer="1316" to-port="0"/>
		<edge from-layer="1299" from-port="2" to-layer="1316" to-port="1"/>
		<edge from-layer="1316" from-port="2" to-layer="1318" to-port="0"/>
		<edge from-layer="1317" from-port="1" to-layer="1318" to-port="1"/>
		<edge from-layer="1318" from-port="2" to-layer="1320" to-port="0"/>
		<edge from-layer="1319" from-port="1" to-layer="1320" to-port="1"/>
		<edge from-layer="1320" from-port="2" to-layer="1322" to-port="0"/>
		<edge from-layer="1321" from-port="1" to-layer="1322" to-port="1"/>
		<edge from-layer="1322" from-port="2" to-layer="1324" to-port="0"/>
		<edge from-layer="1323" from-port="1" to-layer="1324" to-port="1"/>
		<edge from-layer="1324" from-port="2" to-layer="1326" to-port="0"/>
		<edge from-layer="1325" from-port="1" to-layer="1326" to-port="1"/>
		<edge from-layer="1326" from-port="2" to-layer="1328" to-port="0"/>
		<edge from-layer="1327" from-port="1" to-layer="1328" to-port="1"/>
		<edge from-layer="1328" from-port="2" to-layer="1330" to-port="0"/>
		<edge from-layer="1329" from-port="1" to-layer="1330" to-port="1"/>
		<edge from-layer="1330" from-port="2" to-layer="1332" to-port="0"/>
		<edge from-layer="1331" from-port="1" to-layer="1332" to-port="1"/>
		<edge from-layer="1332" from-port="2" to-layer="1334" to-port="0"/>
		<edge from-layer="1333" from-port="1" to-layer="1334" to-port="1"/>
		<edge from-layer="1334" from-port="2" to-layer="1335" to-port="0"/>
		<edge from-layer="1318" from-port="2" to-layer="1335" to-port="1"/>
		<edge from-layer="1335" from-port="2" to-layer="1337" to-port="0"/>
		<edge from-layer="1336" from-port="1" to-layer="1337" to-port="1"/>
		<edge from-layer="1337" from-port="2" to-layer="1339" to-port="0"/>
		<edge from-layer="1338" from-port="1" to-layer="1339" to-port="1"/>
		<edge from-layer="1339" from-port="2" to-layer="1341" to-port="0"/>
		<edge from-layer="1340" from-port="1" to-layer="1341" to-port="1"/>
		<edge from-layer="1341" from-port="2" to-layer="1343" to-port="0"/>
		<edge from-layer="1342" from-port="1" to-layer="1343" to-port="1"/>
		<edge from-layer="1343" from-port="2" to-layer="1345" to-port="0"/>
		<edge from-layer="1344" from-port="1" to-layer="1345" to-port="1"/>
		<edge from-layer="1345" from-port="2" to-layer="1347" to-port="0"/>
		<edge from-layer="1346" from-port="1" to-layer="1347" to-port="1"/>
		<edge from-layer="1347" from-port="2" to-layer="1349" to-port="0"/>
		<edge from-layer="1348" from-port="1" to-layer="1349" to-port="1"/>
		<edge from-layer="1349" from-port="2" to-layer="1351" to-port="0"/>
		<edge from-layer="1350" from-port="1" to-layer="1351" to-port="1"/>
		<edge from-layer="1351" from-port="2" to-layer="1353" to-port="0"/>
		<edge from-layer="1352" from-port="1" to-layer="1353" to-port="1"/>
		<edge from-layer="1353" from-port="2" to-layer="1354" to-port="0"/>
		<edge from-layer="1337" from-port="2" to-layer="1354" to-port="1"/>
		<edge from-layer="1354" from-port="2" to-layer="1356" to-port="0"/>
		<edge from-layer="1355" from-port="1" to-layer="1356" to-port="1"/>
		<edge from-layer="1356" from-port="2" to-layer="1358" to-port="0"/>
		<edge from-layer="1357" from-port="1" to-layer="1358" to-port="1"/>
		<edge from-layer="1358" from-port="2" to-layer="1360" to-port="0"/>
		<edge from-layer="1359" from-port="1" to-layer="1360" to-port="1"/>
		<edge from-layer="1360" from-port="2" to-layer="1362" to-port="0"/>
		<edge from-layer="1361" from-port="1" to-layer="1362" to-port="1"/>
		<edge from-layer="1362" from-port="2" to-layer="1364" to-port="0"/>
		<edge from-layer="1363" from-port="1" to-layer="1364" to-port="1"/>
		<edge from-layer="1364" from-port="2" to-layer="1366" to-port="0"/>
		<edge from-layer="1365" from-port="1" to-layer="1366" to-port="1"/>
		<edge from-layer="1366" from-port="2" to-layer="1368" to-port="0"/>
		<edge from-layer="1367" from-port="1" to-layer="1368" to-port="1"/>
		<edge from-layer="1368" from-port="2" to-layer="1370" to-port="0"/>
		<edge from-layer="1369" from-port="1" to-layer="1370" to-port="1"/>
		<edge from-layer="1370" from-port="2" to-layer="1372" to-port="0"/>
		<edge from-layer="1371" from-port="1" to-layer="1372" to-port="1"/>
		<edge from-layer="1372" from-port="2" to-layer="1373" to-port="0"/>
		<edge from-layer="1356" from-port="2" to-layer="1373" to-port="1"/>
		<edge from-layer="1373" from-port="2" to-layer="1375" to-port="0"/>
		<edge from-layer="1374" from-port="1" to-layer="1375" to-port="1"/>
		<edge from-layer="1375" from-port="2" to-layer="1377" to-port="0"/>
		<edge from-layer="1376" from-port="1" to-layer="1377" to-port="1"/>
		<edge from-layer="1377" from-port="2" to-layer="1379" to-port="0"/>
		<edge from-layer="1378" from-port="1" to-layer="1379" to-port="1"/>
		<edge from-layer="1379" from-port="2" to-layer="1381" to-port="0"/>
		<edge from-layer="1380" from-port="1" to-layer="1381" to-port="1"/>
		<edge from-layer="1381" from-port="2" to-layer="1383" to-port="0"/>
		<edge from-layer="1382" from-port="1" to-layer="1383" to-port="1"/>
		<edge from-layer="1383" from-port="2" to-layer="1385" to-port="0"/>
		<edge from-layer="1384" from-port="1" to-layer="1385" to-port="1"/>
		<edge from-layer="1385" from-port="2" to-layer="1387" to-port="0"/>
		<edge from-layer="1386" from-port="1" to-layer="1387" to-port="1"/>
		<edge from-layer="1387" from-port="2" to-layer="1389" to-port="0"/>
		<edge from-layer="1388" from-port="1" to-layer="1389" to-port="1"/>
		<edge from-layer="1389" from-port="2" to-layer="1391" to-port="0"/>
		<edge from-layer="1390" from-port="1" to-layer="1391" to-port="1"/>
		<edge from-layer="1391" from-port="2" to-layer="1393" to-port="0"/>
		<edge from-layer="1392" from-port="1" to-layer="1393" to-port="1"/>
		<edge from-layer="1292" from-port="2" to-layer="1394" to-port="0"/>
		<edge from-layer="1393" from-port="2" to-layer="1394" to-port="1"/>
		<edge from-layer="1394" from-port="2" to-layer="1395" to-port="0"/>
		<edge from-layer="1395" from-port="1" to-layer="1396" to-port="0"/>
		<edge from-layer="838" from-port="2" to-layer="1398" to-port="0"/>
		<edge from-layer="1397" from-port="1" to-layer="1398" to-port="1"/>
		<edge from-layer="1398" from-port="2" to-layer="1400" to-port="0"/>
		<edge from-layer="1399" from-port="1" to-layer="1400" to-port="1"/>
		<edge from-layer="1400" from-port="2" to-layer="1402" to-port="0"/>
		<edge from-layer="1401" from-port="1" to-layer="1402" to-port="1"/>
		<edge from-layer="1402" from-port="2" to-layer="1404" to-port="0"/>
		<edge from-layer="1403" from-port="1" to-layer="1404" to-port="1"/>
		<edge from-layer="1404" from-port="2" to-layer="1406" to-port="0"/>
		<edge from-layer="1405" from-port="1" to-layer="1406" to-port="1"/>
		<edge from-layer="1406" from-port="2" to-layer="1408" to-port="0"/>
		<edge from-layer="1407" from-port="1" to-layer="1408" to-port="1"/>
		<edge from-layer="1408" from-port="2" to-layer="1410" to-port="0"/>
		<edge from-layer="1409" from-port="1" to-layer="1410" to-port="1"/>
		<edge from-layer="1410" from-port="2" to-layer="1412" to-port="0"/>
		<edge from-layer="1411" from-port="1" to-layer="1412" to-port="1"/>
		<edge from-layer="1412" from-port="2" to-layer="1414" to-port="0"/>
		<edge from-layer="1413" from-port="1" to-layer="1414" to-port="1"/>
		<edge from-layer="1375" from-port="2" to-layer="1416" to-port="0"/>
		<edge from-layer="1415" from-port="1" to-layer="1416" to-port="1"/>
		<edge from-layer="1416" from-port="2" to-layer="1418" to-port="0"/>
		<edge from-layer="1417" from-port="1" to-layer="1418" to-port="1"/>
		<edge from-layer="1418" from-port="2" to-layer="1420" to-port="0"/>
		<edge from-layer="1419" from-port="1" to-layer="1420" to-port="1"/>
		<edge from-layer="1420" from-port="2" to-layer="1422" to-port="0"/>
		<edge from-layer="1421" from-port="1" to-layer="1422" to-port="1"/>
		<edge from-layer="1422" from-port="2" to-layer="1424" to-port="0"/>
		<edge from-layer="1423" from-port="1" to-layer="1424" to-port="1"/>
		<edge from-layer="1424" from-port="2" to-layer="1426" to-port="0"/>
		<edge from-layer="1425" from-port="1" to-layer="1426" to-port="1"/>
		<edge from-layer="1426" from-port="2" to-layer="1428" to-port="0"/>
		<edge from-layer="1427" from-port="1" to-layer="1428" to-port="1"/>
		<edge from-layer="1428" from-port="2" to-layer="1430" to-port="0"/>
		<edge from-layer="1429" from-port="1" to-layer="1430" to-port="1"/>
		<edge from-layer="1430" from-port="2" to-layer="1432" to-port="0"/>
		<edge from-layer="1431" from-port="1" to-layer="1432" to-port="1"/>
		<edge from-layer="1414" from-port="2" to-layer="1433" to-port="0"/>
		<edge from-layer="1432" from-port="2" to-layer="1433" to-port="1"/>
		<edge from-layer="1433" from-port="2" to-layer="1434" to-port="0"/>
	</edges>
	<meta_data>
		<MO_version value="2020.1.0-55-g3b9c198827"/>
		<cli_parameters>
			<blobs_as_inputs value="True"/>
			<caffe_parser_path value="DIR"/>
			<data_type value="FP32"/>
			<disable_nhwc_to_nchw value="False"/>
			<disable_omitting_optional value="False"/>
			<disable_resnet_optimization value="False"/>
			<enable_concat_optimization value="False"/>
			<enable_flattening_nested_params value="False"/>
			<enable_ssd_gluoncv value="False"/>
			<extensions value="DIR"/>
			<framework value="tf"/>
			<freeze_placeholder_with_value value="{}"/>
			<generate_deprecated_IR_V2 value="False"/>
			<generate_deprecated_IR_V7 value="False"/>
			<generate_experimental_IR_V10 value="True"/>
			<input value="input"/>
			<input_model value="DIR/model_frozen.pb"/>
			<input_model_is_text value="False"/>
			<input_shape value="[1,400,680,3]"/>
			<k value="DIR/CustomLayersMapping.xml"/>
			<keep_quantize_ops_in_IR value="True"/>
			<keep_shape_ops value="False"/>
			<legacy_mxnet_model value="False"/>
			<log_level value="ERROR"/>
			<mean_scale_values value="{}"/>
			<mean_values value="()"/>
			<model_name value="person-detection-action-recognition-0006"/>
			<move_to_preprocess value="False"/>
			<output value="['ActionNet/out_detection_loc', 'ActionNet/out_detection_conf', 'ActionNet/action_heads/out_head_1_anchor_1', 'ActionNet/action_heads/out_head_2_anchor_1', 'ActionNet/action_heads/out_head_2_anchor_2', 'ActionNet/action_heads/out_head_2_anchor_3', 'ActionNet/action_heads/out_head_2_anchor_4']"/>
			<output_dir value="DIR"/>
			<placeholder_data_types value="{}"/>
			<placeholder_shapes value="{'input': array([  1, 400, 680,   3])}"/>
			<progress value="False"/>
			<remove_memory value="False"/>
			<remove_output_softmax value="False"/>
			<reverse_input_channels value="False"/>
			<save_params_from_nd value="False"/>
			<scale_values value="()"/>
			<silent value="False"/>
			<stream_output value="False"/>
			<unset unset_cli_parameters="batch, counts, disable_fusing, disable_gfusing, finegrain_fusing, input_checkpoint, input_meta_graph, input_proto, input_symbol, mean_file, mean_file_offsets, nd_prefix_name, pretrained_model_name, saved_model_dir, saved_model_tags, scale, tensorboard_logdir, tensorflow_custom_layer_libraries, tensorflow_custom_operations_config_update, tensorflow_object_detection_api_pipeline_config, tensorflow_operation_patterns, tensorflow_subgraph_patterns, tensorflow_use_custom_operations_config, transformations_config"/>
		</cli_parameters>
	</meta_data>
</net>
